.lr_find_51901824-6c67-4ba1-a9c8-e25f73012a31.ckpt (torch, 770842 bytes, 585 tensors)

input_embeddings.embeddings.spot_id.weight f4 [1841, 8]
00000000: 0000 0000 0000 0000 0000 0000 0000 0000
00000010: 0000 0000 0000 0000 0000 0000 0000 0000
00000020: f08b 40bf 5b09 d33f f6f2 c8be 66a9 b3bf
00000030: 6e56 3abf d136 0fbf a0d2 44bf 9f2f 433f
00000040: 7137 d23f 856d 23be e4aa febe d811 e13e
00000050: e214 42bf 5006 8a3f 4401 4d3f 931e d73f
00000060: 59ba a33f 2ff1 a53f 8847 1c3f b0d8 aa3f
00000070: ed2e 6dbe 000c 2b3d 7ace 80be b01f 5c3f
00000080: fd3c b1bf 5509 5fbf 09ba 64be 80d2 db3f
00000090: 4844 a33e 8d5a d9be 7487 9c3e b24b 46bf
000000a0: 895e c7bf 02e2 7e3f a539 61bf 72e4 19bf
000000b0: 6317 a3bf b6db 0740 1d09 9ebf d9cf f9be
000000c0: 4ef0 69bf af7b 28bf fbca 9f3d 679b 063f
000000d0: 0dda f9be c87e 983f ce62 50bf 066a 3cbf
000000e0: a09d b3bf 9578 133d 5f00 82bd 19f5 2c3f
000000f0: fb4e c8bd a81b ec3f ec9e 97bf 2518 b13f
00000100: 25fa b83f da3d 5b3f f4f4 0d40 2dee 053f
00000110: ac7b b13e 4111 4abe c5fc 86bf 5c95 a33f
00000120: 9c52 30be 0017 063f 48ec 673d 7d43 da3e
00000130: 8833 133f 0848 24bf a235 0dc0 a134 40bf
00000140: 4d10 323c a36f adbe 639b abbf d8da 15bf
00000150: a043 093f ab4d 063f e512 923f 3c88 533d
00000160: a373 3e3f 3b92 f6be e854 86bf 1d99 1a3f
00000170: 2a74 dcbf a9e8 53bf 8cd7 aa3f 7692 f73e
00000180: 609c 20c0 46db f93e afda 483f 81ad ea3c
00000190: 8a08 243f b44f 153f 0e91 883f 817a e6be
000001a0: c2b6 3dbe ceb4 403f 6a3c cf3e cabf 363e
000001b0: 38a2 873e 2ef7 a23f 49d1 abba f471 9bbe
000001c0: ee7f babf 2395 d1bd 1862 19bf bd40 f43e
000001d0: c0e6 393f d4ad ba3d 8e33 c7be 8925 073f
000001e0: c1d6 4fbc cc9d 763e 5ab7 073e 46a5 433f
000001f0: 4729 8c3f 3006 ae3e ca4f 383f 05a4 d23e
00000200: 4530 f73f c184 813f 2bdc b7bf 3f9f 90bf
00000210: a34c 0bbe 1a55 d13f 179d 273f 0975 133f
00000220: ef1c 923f bd14 983c 9f24 e7bf 4de9 6c3f
00000230: 232d c0be 353c 843f 5bc8 2fbf 3806 233f
00000240: 2801 79bf 7d5d 753f f641 cf3f 95ad b93f
00000250: 7cf9 893e cd6c 57be f698 3bbf 1a9a d53d
00000260: 958f b23e 40b4 773f b76e eebe ff69 cd3f
00000270: 4aba 1ec0 4bc8 d5be a104 99bf 50f5 4f3f
00000280: 5445 f3bf f70f 6a3e f3a5 cb3c 6420 b1be
00000290: c0db 923e 7d18 3bbf 1504 333e e005 8cbf
000002a0: 9713 cdbf ba2b ad3f 4ef8 a43f c733 563d
000002b0: 32ff c5bf 7db7 413f 7288 463f c2b2 0140
000002c0: 7db5 123d 39f7 f63d fa3f 4ebf 058f 54be
000002d0: 2294 6ebf c8a4 cbbf a767 91bf f5c8 05bf
000002e0: 54ce 04bf d329 c0bf 9b9c f6bf 6feb 023e
000002f0: d3ee 823f 9748 0ebf 384b 343f 6fba 353f
00000300: 291f e33f c4ea 6bbf 1e63 763f 408d acbe
00000310: 5571 96bf 4253 b73e 1121 f53e 0b46 ad3f
00000320: 01ac 063f a12b 0740 5750 05bf f497 6ebf
00000330: ef9a 3d3e e5ca 883f 853c a73f 6e6f eb3e
00000340: 638b 50bf f8b7 82bf 9f66 fdbe ce9d 17bf
00000350: 0005 1e3e 39ac e13e f0d9 17be 6061 14c0
00000360: 0bc6 cbbe 604d 8a3f 5df3 e3bf a207 c13f
00000370: 6b6d 9e3e 4114 00bf fc7a 843f 5b46 d83f
00000380: 1d9f 93bb 7459 d53f 409d 1d3e 5fb6 87bf
00000390: b099 12bf b825 ab3d 65c0 cc3e 579e fe3f
000003a0: 306e 93bd cff5 67bf 1a1e 03c0 0760 8abf
000003b0: 475e 903c f234 a03d 4acb 453e b7c0 d13e
000003c0: 7cdb 6dbf e468 8d3e bbf3 09bf 97d7 ec3e
000003d0: 2034 5fbf 5327 debc a1dc b4be aa5f bb3f
000003e0: 12b2 a03f 5807 37bf 759a 5a3f 6453 033f
000003f0: d02b 0a3f f0c4 103f 917b 013f e4ca 633e
0.0 0.0 0.0 0.0 0.0 0.0 0.0 0.0
-0.7521353 1.648723 -0.39247864 -1.4036071 -0.7278813 -0.5594302 -0.7688389 0.7624454
1.6423169 -0.15959747 -0.49739754 0.43958926 -0.75813115 1.0783176 0.80080056 1.6806206
1.2791244 1.2964228 0.6104665 1.3347378 -0.23162432 0.04175949 -0.2515753 0.8598585
-1.3846737 -0.87123615 -0.22336592 1.7173615 0.31888032 -0.42451897 0.30572093 -0.7745925
-1.5575725 0.9956361 -0.87978584 -0.60114205 -1.2741512 2.122785 -1.2346531 -0.48791388
-0.913823 -0.65813726 0.07802387 0.52580875 -0.48799172 1.191369 -0.81400764 -0.7359928
-1.4032478 0.036003668 -0.06347727 0.6756149 -0.09780689 1.844594 -1.1845374 1.3835493
1.4451338 0.85641253 2.2180758 0.5231655 0.34664667 -0.19733144 -1.0545889 1.2779956
-0.17219013 0.52378845 0.05662182 0.42629614 0.57500505 -0.6417241 -2.2063985 -0.75080305
0.010868144 -0.33874235 -1.3406795 -0.58537054 0.5361881 0.5246226 1.1412016 0.051643595
0.743952 -0.4815844 -1.0494661 0.6038988 -1.722295 -0.82776886 1.334703 0.48353928
-2.5095444 0.48800105 0.78458685 0.028647186 0.6407553 0.5832474 1.0669267 -0.45015338
-0.18526748 0.75275886 0.4047578 0.17846599 0.2649095 1.2731683 -0.0013108636 -0.30360377
-1.4570291 -0.10233524 -0.59915304 0.4770564 0.7261772 0.09115186 -0.3890652 0.5279165
-0.012685479 0.24083632 0.13253537 0.7642406 1.0950097 0.33989096 0.7199675 0.41140762
1.9311606 1.0118638 -1.4364065 -1.1298598 -0.13603453 1.6354096 0.65474075 0.57600456
1.141508 0.018564576 -1.8058051 0.9254349 -0.37534437 1.0330874 -0.68665093 0.63681364
-0.9726739 0.95845777 1.6192005 1.4506098 0.26948154 -0.21037598 -0.73280275 0.10429783
0.3487517 0.96759415 -0.46568844 1.6047972 -2.4801202 -0.41754374 -1.1954538 0.8123369
-1.9005532 0.22857653 0.024859404 -0.34595025 0.2868328 -0.7308424 0.17482026 -1.0939293
-1.6021603 1.3528969 1.2888277 0.052295472 -1.5468504 0.75670606 0.7755195 2.0265355
0.035817612 0.12058873 -0.8056637 -0.20757683 -0.9319478 -1.5909662 -1.1359757 -0.5225976
-0.5187733 -1.5012764 -1.9266542 0.12785123 1.0229133 -0.55579513 0.70427275 0.709876
1.7743884 -0.921551 0.9624499 -0.33701515 -1.1753336 0.35805708 0.4787679 1.3537
0.5260621 2.112038 -0.52075714 -0.9320061 0.18516134 1.0686918 1.3065344 0.45983452
-0.8146269 -1.0212393 -0.49492356 -0.59225166 0.15431595 0.44076708 -0.1482923 -2.3184433
-0.39799532 1.0804863 -1.7808644 1.5080454 0.30942854 -0.50030905 1.0350032 1.6896471
-0.0045050518 1.6667924 0.15392017 -1.060253 -0.5726576 0.08356804 0.39990535 1.9892071
-0.07198751 -0.9060945 -2.0487123 -1.0810555 0.01762308 0.078225985 0.1931583 0.40967342
-0.9291303 0.27619088 -0.5388753 0.46258232 -0.8718891 -0.02711836 -0.35324576 1.4638569
1.2554343 -0.7149558 0.8539193 0.5129912 0.539731 0.565505 0.5057917 0.22245365

input_embeddings.embeddings.vehicle_type.weight f4 [20, 8]
00000000: 0000 0000 0000 0000 0000 0000 0000 0000
00000010: 0000 0000 0000 0000 0000 0000 0000 0000
00000020: 6c30 74bd 5d0f e6be 4528 783f 5cf0 773f
00000030: edaf 25c0 da33 6abe 3d91 f2be 447e 693f
00000040: cda2 643f 42a7 88bf 67a2 14bf c61a 01bf
00000050: 7996 fbbc 784e 573f d81d 253f 638d af3e
00000060: 4167 babd 0486 bb3e 7841 c63f 5a82 903e
00000070: e5ee c53f d91c 023f 6258 a7bf a178 7c3f
00000080: 4994 3abf e1c5 ed3e 5d79 44bf 646b 8cbf
00000090: ce2e 213e d705 193f 9702 f53d a7a6 0440
000000a0: eb32 ba3e 9e12 15bf f3a6 613f a64c ad3f
000000b0: feb1 703f 1494 823f 61d2 5fbf a867 c23e
000000c0: a039 bc3e e6bf d7bc af19 1e3e 590c c2bf
000000d0: 1ef3 adbf e4f5 8f3f efaa 22c0 7492 c83e
000000e0: 83aa a6bf 6b90 0e40 a36a 00bf e73f c4be
000000f0: 5bde a1be ef00 113f 2c87 73bf 6815 dd3e
00000100: dff8 d53e 9d25 9b3e 0f14 443f 0c11 563f
00000110: b688 60bf fa71 0240 995b 32bf 05cc 0b3f
00000120: 7468 36bd 7a50 db3f 4178 67bf 8761 f5be
00000130: ce3a 11bf 5894 1f3f 9721 6e3f 50bd a03e
00000140: f175 b53e 482c 07bf a562 34bf 2c6f 6cbe
00000150: 1acf 363f 2759 bcbc 8dae 443e 779a 2e3d
00000160: 3e3a 2c3d b036 f4bc 26ad 47be d410 233e
00000170: ac40 ffbc 44db f0be 4c3a e5be 3420 1dbf
00000180: d424 113f 6c1b 923f b64b 7b3f f58e 013f
00000190: 1887 033e 08a5 273f 7d3f d9bd 7176 f43d
000001a0: ae6d ee3e dd90 51bf a39f 8b3f f86e 28be
000001b0: ecfe 15c0 7ace 21be fed0 883f 2a49 c53d
000001c0: 7906 0dc0 ab25 56bf 6c85 293f e58e 40bf
000001d0: 2293 253f 18ee 7f3e 8a29 cdbf a388 513e
000001e0: 0b80 a0be 7c0a d8bc 41d4 59bf 533b 1f40
000001f0: 686c f0be e037 5bbf ed13 38bf f90c 1d40
00000200: 32ef b0bf bdf9 73bf 5148 823d 9b7a 3bbf
00000210: da76 4fbf 07c6 b03d 23ae a53f a425 27bf
00000220: 02c1 f7bf d1cd b83d 5ce6 403f 4765 2e3f
00000230: 0551 843f 5c67 36bd 207a fb3e 6be4 53bf
00000240: 827e f1bf 7684 93bf 4fe6 963d 95e8 ae3f
00000250: 24b3 2bbf 629a cabf dfe7 863f f85b 9dbe
00000260: 4ed4 ccbf 77ef 643f ac43 3abf 1cc7 edbe
00000270: 5e56 b33f 0a4e adbd 4e6e 2bbf dccb 3b3e
0.0 0.0 0.0 0.0 0.0 0.0 0.0 0.0
-0.05961649 -0.44933596 0.96936446 0.96851134 -2.5888627 -0.22871342 -0.47376433 0.9120829
0.89310914 -1.0676043 -0.58060306 -0.5043148 -0.0307114 0.8410411 0.6449866 0.34287557
-0.09101725 0.36625683 1.548873 0.2822445 1.546353 0.5082527 -1.3073847 0.98621565
-0.72882515 0.46440032 -0.76747686 -1.0970273 0.15740511 0.59774536 0.119633846 2.0726717
0.36366972 -0.5823153 0.8814537 1.3539016 0.94021595 1.020144 -0.8743039 0.37969708
0.36762714 -0.026336621 0.15439485 -1.5160018 -1.3589818 1.1246915 -2.541683 0.39174235
-1.3020786 2.2275646 -0.50162715 -0.38330004 -0.31614956 0.5664205 -0.9512813 0.43180394
0.41791436 0.30302134 0.76593107 0.8361976 -0.87708604 2.0382066 -0.69671017 0.54608184
-0.044533208 1.7133934 -0.9041787 -0.4792597 -0.56730354 0.6233573 0.93020004 0.31394434
0.35441545 -0.5280194 -0.7046302 -0.23089284 0.7140976 -0.02299173 0.19207211 0.042627778
0.04204773 -0.029811233 -0.19499645 0.15924388 -0.031158768 -0.47042286 -0.4477104 -0.61377263
0.5669682 1.1414618 0.981624 0.5060876 0.12844503 0.6548619 -0.106078126 0.119366534
0.46568054 -0.8186167 1.0908092 -0.16448581 -2.3436842 -0.15801421 1.0688779 0.096330956
-2.20352 -0.83651227 0.6621921 -0.7521804 0.6467763 0.2499317 -1.6028302 0.20462279
-0.3134769 -0.026372187 -0.850895 2.4879959 -0.46957707 -0.85632133 -0.71905404 2.4539168
-1.3822997 -0.95302945 0.063614495 -0.73233956 -0.8104073 0.08631521 1.2943767 -0.6529181
-1.9355776 0.09023631 0.753515 0.68123287 1.0337225 -0.044532165 0.4911661 -0.82770413
-1.8866732 -1.1524799 0.07368147 1.3664728 -0.6707022 -1.5828364 1.0539511 -0.3073423
-1.600229 0.89427894 -0.7275951 -0.4644097 1.4010732 -0.084621504 -0.66965187 0.18339485

input_embeddings.embeddings.region_code.weight f4 [12, 6]
00000000: 2806 8fbf 5da0 df3e 47ea 8dbf 13e9 473f
00000010: 4ca3 50be 7b8d af3e 44e3 253f fa0b 7f3f
00000020: 02b8 2ebf 121c 3cbf b54f 5bbf 24b6 95be
00000030: ca76 95be 3452 ca3d e782 babf 59ca ac3e
00000040: bdaa a8bf 3e79 a9be 773c b03d 404c fbbe
00000050: 4cd6 883f 11f2 19bf 43c1 27bf c474 903b
00000060: d603 7bbf 3ce1 87bf 690c 4b3e e1ea 643f
00000070: a9ce 0540 8cc3 05bf e9a3 f9be 5393 db3f
00000080: fc49 233f b898 8c3f 8701 e0bd bf88 613f
00000090: 7071 703f 19dc 8e3e 9f8f 93be 4607 0ec0
000000a0: e2ca a8be 241c 993f a709 9f3f 2e45 843f
000000b0: d265 95be 95b8 4bbe c89a ea3f d880 b3bf
000000c0: 50af 1a3f 63fc be3f 407d 1cbf 139a 18be
000000d0: 1ab0 ffbe cfcc 243b 9bbb 633f 0c02 48bf
000000e0: 0df0 e13d ac9f 23bf 662c bd3e 6911 0bc0
000000f0: 1076 44c0 14d4 ebbf 1fc5 bc3f 5dff 96bf
00000100: e8cc 833f b147 c5be 0f08 c5bf 4ab3 50bf
00000110: dd49 8d3f 0236 fe3e 1bcf 063f 03eb 08be
-1.1173754 0.43677035 -1.1087121 0.7809002 -0.20374793 0.3428763 0.64799905 0.9962765
-0.68249524 -0.7348033 -0.856685 -0.29240525 -0.2919219 0.0987896 -1.4571198 0.3374813
-1.3177105 -0.33100313 0.08605283 -0.49081612 1.0690398 -0.6013499 -0.6552927 0.004408451
-0.9805273 -1.0615611 0.19828953 0.89420897 2.0907385 -0.52251506 -0.48757866 1.7154335
0.63784766 1.0984106 -0.10937791 0.8809928 0.9392309 0.27902296 -0.28820512 -2.219194
-0.32967287 1.1961713 1.2424821 1.0333612 -0.29179245 -0.19894631 1.8328485 -1.4023695
0.60423756 1.4920772 -0.61128616 -0.14902525 -0.49939042 0.002514649 0.8895814 -0.78128123
0.11032114 -0.63915515 0.36947936 -2.1729376 -3.069706 -1.8424096 1.4747657 -1.1796681
1.0296907 -0.3853126 -1.5393084 -0.81523573 1.1038166 0.4965058 0.5265977 -0.133709

input_embeddings.embeddings.dow.weight f4 [7, 5]
00000000: 399e a63f 1ff4 cdbf a677 8d3e 1238 32bf
00000010: 5cf1 923f 7fc6 d9be e34e db3d 1319 5c3f
00000020: 77ac 43be dae0 cfbf b052 be3f 2aac 25c0
00000030: 6544 293e 7b17 02c0 6936 293f 2c76 93bf
00000040: 03f0 f5be 4e65 dcbd 5cdb 8a3e 721a 57be
00000050: 5e58 5bbe 2d6e 42bd af2a afbe 17b9 643f
00000060: 7a59 4abe ddf1 82bf 3327 3cbf 9ad1 edbd
00000070: 9d78 3f3d 0d77 e3bd bcde 1a3e dbda 253f
00000080: 9804 a6bd c41f 6cbf 4d65 733d
1.3017036 -1.6090125 0.27630347 -0.69616807 1.1479907 -0.42534253 0.10708406 0.8597576
-0.19108759 -1.6240494 1.4868984 -2.588633 0.16529997 -2.0326831 0.6609865 -1.1520438
-0.48034677 -0.1076151 0.27120483 -0.21006182 -0.21420428 -0.047468353 -0.34212252 0.89344925
-0.19760695 -1.0230061 -0.73497313 -0.11612244 0.046745885 -0.111066915 0.15124029 0.6478707
-0.08106345 -0.9223597 0.05942278

input_embeddings.embeddings.week.weight f4 [52, 8]
00000000: 8b7e bf3e 10e9 2c3f ea15 323f b927 e73e
00000010: df55 5cbf 1eeb ee3f df80 c4be 1ba7 d8bf
00000020: faa0 6d3f 4dbd 5bbf 3a66 823f 0a37 913f
00000030: a2a7 c5be 24af ddbe a372 173e 47d0 713f
00000040: a72d 833e e78e 593f 3dcd 623f 1812 9bbf
00000050: 4f8e 32c0 d11d 953f 20ae 7b3e 47b3 413e
00000060: 9e1e c2bf 8889 9c3f 9298 7e3e fc86 75be
00000070: 7bae 2d40 0420 28bd 2ed8 523e 44ba 85be
00000080: 6b9d a3bf 4539 52be 765b bf3f fc87 ec3d
00000090: dfe4 d3bf 3a83 05be 4b97 0a40 a71d b63f
000000a0: 6e75 2abf 3c37 a93f ac5b 17be 771d df3f
000000b0: 9848 8abf 6d93 f9be d7da cd3f 4a10 e6be
000000c0: 85ed 8d3f 9926 893f 8e4d 5dbe eaf0 14bf
000000d0: 2e59 8f3e cba9 77bf 94a3 a03f 57b3 2e3f
000000e0: 76da c0be a4ff 333f 05b5 2fbe 1b34 adbf
000000f0: 77f8 c13e 0d2a 623e f97e 7b3e 595c 463c
00000100: f746 88bf 17d2 dfbe 7c8a 073f 9db7 e6be
00000110: dfe1 7fbf 1fae 63be ec2d 57bf ffa1 423e
00000120: cf07 d5bf 689f 773f 6bb7 3dbf b99e 29bd
00000130: bbc8 1840 0e05 4c3f 4d4b fc3f fc38 b5bd
00000140: e571 8cbf 4138 6fbe 1118 8d3f 229b 543f
00000150: e525 a8bf 8d40 b23e 8aa7 e8be 4a2e 9dbf
00000160: 547e d5be fd29 9d3c 820d c43e 7adf 473f
00000170: 34e7 ec3f 2e8a 503e 0d9d 8bbf 1ddf d9bf
00000180: 51a9 f7bd 231d 0740 f068 a3bf 813d 7e3f
00000190: 95e4 4dbe 0469 64bf 20ac 95be f07c 813e
000001a0: 63b9 c63e ced9 2040 975b d73c 4a23 cc3f
000001b0: 87cc 573f 1bb0 01c0 c59a 0ec0 f786 69be
000001c0: 94b3 b4bf 90d8 32bf 5edc 713f 754a bd3d
000001d0: 2600 cdbf dfb0 c53f c206 6a3b 8238 9d3f
000001e0: 761f 0340 3c93 a53f 86fd aa3e 7d92 aebf
000001f0: edd8 0ac0 c291 0fc0 a7c4 a23d a751 08c0
00000200: f771 da3b 01e7 8e3f 695e 82bf 7b16 a53e
00000210: 40ca 1d3c 2660 98bf 035a 81bf 9150 3340
00000220: 6279 82be 719a d53f 1a1a d6bf 6b8b a73d
00000230: c151 f03e ebc1 21bf 44a6 a4bf 3291 8b3f
00000240: 3a08 523e d459 75be 9884 7d3e c411 903f
00000250: 8a44 8e3f 929f ae3f 90ae d93f 9441 b03c
00000260: 333d 753f 7e93 c03e 5352 733e b3c2 a7be
00000270: b589 4fbe ac5e e43d 102d 403f 2187 343e
00000280: 06cf 6d3f e59a 7d3f ba12 18be f206 813f
00000290: 593f e7be e643 e23f 0ebd b6bd 0eeb 993f
000002a0: 5fea c2bc 6875 403f 4315 a8bc a143 b0be
000002b0: d647 83bc 68e4 f43f b26e 2a3f ee3c 0f3f
000002c0: 64d1 323f 518f 233e 723e cf3f c0c6 eb3e
000002d0: 45a8 75bf 03fe fb3f fb08 213f 801b aebf
000002e0: bc21 863e 393b 19bf 51b3 2c3d 3cf5 d7bf
000002f0: 9774 4d3e ee91 3d3f d6dc 44be c16b 27bf
00000300: e012 c2be d497 a9bc 54c7 cb3c 7b98 293e
00000310: 6967 7d3f b6bf 79bf 2a4d adbe d714 efbf
00000320: 633e b8be 210b b53f 80f6 1fbf 6e1f 04bf
00000330: 53b9 2abf 948f c83e 3542 f23e 2a11 2dbf
00000340: 68dc e9be 6097 bb3f 93f1 47bf 5b2a bebf
00000350: 2801 2540 8b79 67bf 07ca d03f 025c 453e
00000360: fea9 80bf 5021 573f 4c7e a53d 9430 423f
00000370: 4582 ccbd 56eb a13f 24d1 83bf 2bf5 14bf
00000380: cede 903f 7469 d8bf 959d 25c0 8a86 093f
00000390: a469 403e f744 c03e 3d60 c5bf d74a 223f
000003a0: cd8f 97be a74b 693f a54d ddbf 3182 f03e
000003b0: c1b6 71be cf3f aa3f 2e60 2f3f 18c3 903f
000003c0: 5e70 bd3f fad0 abbd 40db 14be 3606 4d3d
000003d0: 6780 6e3e 630f 763e a965 9abf bdba 85bf
000003e0: ca75 9dbf cdcd 2bbf aeb2 c0be 7987 413f
000003f0: bcef 93bf c66a 0ebf 6462 553e 42d2 97bc
0.37401232 0.67543125 0.6956469 0.45147493 -0.8606853 1.8665502 -0.3837957 -1.6925997
0.92823756 -0.85835725 1.0187447 1.1344922 -0.38604456 -0.43297684 0.14789824 0.9445843
0.25620767 0.84983677 0.8859442 -1.2114897 -2.7899358 1.1649724 0.24578142 0.18916045
-1.5165594 1.2229471 0.24862888 -0.23977274 2.7137744 -0.041046157 0.20590279 -0.26118672
-1.2782415 -0.20529659 1.4949787 0.115493745 -1.6554221 -0.1303834 2.1654842 1.4227799
-0.66585433 1.3219981 -0.14781064 1.7430867 -1.0803404 -0.4874529 1.608241 -0.44934303
1.108811 1.0714904 -0.21611616 -0.58180106 0.27997726 -0.9674346 1.254992 0.682424
-0.37666672 0.7031195 -0.17158897 -1.3531526 0.37884876 0.22086354 0.24560155 0.012106978
-1.0646657 -0.43714973 0.52945685 -0.4506196 -0.99954027 -0.2223439 -0.84054446 0.19007109
-1.6643008 0.9672761 -0.74108 -0.041411135 2.3872516 0.7969521 1.971048 -0.088487595
-1.0972258 -0.23361303 1.102297 0.83049214 -1.3136564 0.34814873 -0.45440322 -1.2279751
-0.41697943 0.01918506 0.38291556 0.78075373 1.8508058 0.20365211 -1.0907303 -1.7021214
-0.120928414 2.1111534 -1.2766399 0.993126 -0.20106728 -0.8922274 -0.29232883 0.25290632
0.38813314 2.5132937 0.02628879 1.5948269 0.8429646 -2.0263736 -2.2281964 -0.22805391
-1.4117303 -0.698617 0.9447688 0.09242717 -1.601567 1.5444602 0.0035709594 1.228287
2.0487952 1.2935557 0.33396548 -1.3638455 -2.16949 -2.2432714 0.07947665 -2.1299837
0.0066664177 1.1164247 -1.0185062 0.32243714 0.00963074 -1.1904342 -1.0105594 2.8017924
-0.25483233 1.6687757 -1.6726716 0.08180889 0.46937373 -0.6318652 -1.286324 1.0903685
0.2051095 -0.23960048 0.24757612 1.1255422 1.1114666 1.3642447 1.7006397 0.021515645
0.9579651 0.37612528 0.23761873 -0.3276573 -0.20267375 0.1115087 0.7506876 0.17629673
0.9289402 0.99064475 -0.14850894 1.0080245 -0.45165518 1.7676971 -0.08922778 1.2024858
-0.023793397 0.7517915 -0.02051795 -0.34426597 -0.016025465 1.9132204 0.6657516 0.55952346
0.69850755 0.1597264 1.6190932 0.46050072 -0.95959884 1.9686893 0.6290433 -1.3602142
0.26197612 -0.5985599 0.042163197 -1.6871715 0.20064007 0.74050796 -0.19224867 -0.65398794
-0.37905025 -0.02070228 0.02487532 0.16562073 0.98985916 -0.9755815 -0.33847934 -1.8678235
-0.35985097 1.4144021 -0.62485504 -0.5161046 -0.6668903 0.3917204 0.47316137 -0.67604315
-0.4567597 1.4655571 -0.7810299 -1.4856676 2.5781956 -0.90419835 1.6311654 0.1927338
-1.0051877 0.84035206 0.0808073 0.75855374 -0.099857844 1.2649944 -1.02982 -0.58186597
1.1317995 -1.6907182 -2.587743 0.53720915 0.18790299 0.37552616 -1.5419995 0.63395447
-0.296019 0.9113106 -1.728932 0.46974328 -0.23604871 1.3300723 0.68506134 1.1309538
1.4799917 -0.083894685 -0.14536762 0.05005475 0.23291169 0.24029307 -1.2062274 -1.0447613
-1.2301571 -0.671109 -0.37636322 0.7559734 -1.1557536 -0.55631673 0.20838314 -0.018532876

input_embeddings.embeddings.month.weight f4 [12, 6]
00000000: c04c 85bf 2475 58be 892a 1b40 c168 51bd
00000010: c4c8 5bbf c947 d83e 81cc ad3e 2321 5dbf
00000020: 6610 cc3e 7b3d f13d c635 e4bf 9181 053f
00000030: 9255 973f eaca 053f da23 a83f 6afb 023f
00000040: 352d 6f3e cda6 35bf f956 a8be 3f30 d83e
00000050: f299 72bf 66cf 63bf 85ad 83bf a6f5 1fc0
00000060: 4c4d d33e 82e0 f93e d3b6 823f 0c1b bf3e
00000070: 9e20 7a3f 42dc 6cbf 8752 5dbf 734d 3d3f
00000080: 7c18 e33f 2f8c f5bf 4f97 c33f c158 8a3f
00000090: cb85 14be 12fd ea3e 7733 86bf ab79 803f
000000a0: be96 5dbf 04f3 7dbe db31 b63f 1369 d43f
000000b0: d903 99bf ab1e 85bf eee5 e4bf 5f27 51bf
000000c0: a704 0bbf f265 90be 1975 613e b56e a4be
000000d0: b751 49be cd67 813e 0047 a9bd 9347 c4bf
000000e0: 90e9 c6bd 7837 653f 3ad5 1ebf f559 cfbf
000000f0: 117e c6be ff83 f5bd c931 f5bf d3d0 b63e
00000100: 0b3c 02bf 21ee cdbc 4e2e b93f 233f 183f
00000110: e5f5 cabe ab6e 6dbf b94d 6d3f 7eb8 063e
-1.0414047 -0.21138436 2.4244711 -0.05112529 -0.8585322 0.42242268 0.33945087 -0.8637869
0.3985626 0.117793046 -1.782891 0.5215083 1.1822989 0.5226275 1.3135941 0.5116488
0.23357089 -0.7095764 -0.32878855 0.4222431 -0.9476615 -0.8898834 -1.0287329 -2.4993682
0.4126991 0.48804098 1.0212044 0.37325323 0.9770602 -0.92523587 -0.8645405 0.73946303
1.7741847 -1.9183406 1.5280551 1.0808336 -0.14504163 0.45896202 -1.0484456 1.003713
-0.8655814 -0.24799734 1.4233965 1.6594566 -1.1954299 -1.0399984 -1.7882669 -0.817007
-0.54303974 -0.28202778 0.22017325 -0.32115713 -0.19660078 0.25274506 -0.08265495 -1.5334343
-0.09712517 0.89537764 -0.6204411 -1.6199328 -0.38768056 -0.11988067 -1.9155818 0.35706195
-0.5087287 -0.025137963 1.4467256 0.5947134 -0.39640728 -0.9274699 0.9269672 0.13156316

input_embeddings.embeddings.quarter.weight f4 [4, 3]
00000000: 46cf 283f d849 a3bf 7317 7c3f 8708 743d
00000010: 871a 273f 088b b03f 9b5c 4f3f 5e92 833e
00000020: 1a7f 93bf 6146 0b3f 6a27 42bf 309b 0f3f
0.65941274 -1.275691 0.9847328 0.059578445 0.6527485 1.3792429 0.8100068 0.25697607
-1.1523163 0.54404265 -0.7584139 0.5609617

input_embeddings.embeddings.is_weekend.weight f4 [2, 1]
00000000: 5c9b 9fbf 9f2b 9a3f
-1.2469287 1.2044562

input_embeddings.embeddings.is_holiday.weight f4 [2, 1]
00000000: 80b8 43bf b105 22bf
-0.764534 -0.63289934

prescalers.encoder_length.weight f4 [8, 1]
00000000: 1802 a0be 40f2 5a3d 8050 0bbd 8a3c 35bf
00000010: 009f 65be 0622 173f 209d 093d 048c 753f
-0.31251597 0.053453684 -0.034012318 -0.707955 -0.22423935 0.5903629 0.03359711 0.9591677

prescalers.encoder_length.bias f4 [8]
00000000: 4c21 51bf 9a75 35bf 3040 5abf 3c0a 22bf
00000010: d8d8 563e 8a40 2b3f 7694 51bf 9454 43bf
-0.8169143 -0.7088257 -0.8525419 -0.63296866 0.20981157 0.66895354 -0.8186716 -0.7630093

prescalers.rev_per_vehicle_center.weight f4 [8, 1]
00000000: 20a3 bdbe d6da 173f ac37 073f 3010 d0bd
00000010: c083 693f 3c52 ba3e fc9f 703f 002e 303b
-0.37038517 0.5931829 0.52819324 -0.101593375 0.9121666 0.36390865 0.93994117 0.0026882887

prescalers.rev_per_vehicle_center.bias f4 [8]
00000000: 7888 1ebf 00d4 363c a42b a23e 302d c83e
00000010: 00a4 76bb 60e9 0b3d 204a 423e e0c4 61be
-0.61926985 0.011158943 0.3167392 0.39096975 -0.0037634373 0.03415811 0.18973589 -0.22047758

prescalers.rev_per_vehicle_scale.weight f4 [8, 1]
00000000: f0b4 7a3e 4af1 22bf 2855 61be 3a06 0a3f
00000010: 4480 9c3e 5640 0f3f cc7e 2abf 78b2 96be
0.24483085 -0.6364943 -0.22005141 0.5391575 0.3056661 0.55957544 -0.66599727 -0.29433036

prescalers.rev_per_vehicle_scale.bias f4 [8]
00000000: ce88 04bf 1025 47bf 6834 d2be 0001 83bd
00000010: e008 96bd a018 7dbd deb4 21bf 00f2 8abd
-0.5177125 -0.7779093 -0.41055608 -0.06396675 -0.073259115 -0.061791062 -0.63166606 -0.06784439

prescalers.offday_run.weight f4 [8, 1]
00000000: 60c3 873e 6edc 373f 3ce0 1a3f 38f1 55bf
00000010: 8c17 23bf f6ee 493f 02c7 2d3f c01a 0e3f
0.26516247 0.71820724 0.60498405 -0.83571196 -0.63707805 0.7888025 0.67881787 0.5550957

prescalers.offday_run.bias f4 [8]
00000000: b408 04bf 78e3 573f 2cb6 78bf 2c97 4bbf
00000010: e04b b73d 7c1f ee3e de4b 71bf 80bc 163e
-0.5157578 0.84331465 -0.9715297 -0.79527545 0.08950019 0.46508396 -0.9425639 0.14720345

prescalers.rain_mm_lag1.weight f4 [8, 1]
00000000: 808f 76bc d0ca 06be 7483 48bf 5c72 f5be
00000010: a046 403d a0e7 743e c48f 203f 8c62 b5be
-0.0150488615 -0.13163304 -0.7832558 -0.47938812 0.046942353 0.23916483 0.6271937 -0.35426748

prescalers.rain_mm_lag1.bias f4 [8]
00000000: 9650 723f 88c8 c03e eced 2dbf 88dd 7ebf
00000010: 561e 2c3f 80c7 9a3d d08b cdbd a07f a9be
0.94654214 0.37652993 -0.67941165 -0.9955678 0.6723379 0.07557583 -0.10036433 -0.33105183

prescalers.RH.weight f4 [8, 1]
00000000: bcb6 f03e 843d b8be 5a4b 3bbf e2c8 313f
00000010: 8884 dbbe 0667 133f 160c 30bf d8da 4dbe
0.47014415 -0.35984433 -0.7316185 0.6944715 -0.4287455 0.57579076 -0.6876844 -0.20103014

prescalers.RH.bias f4 [8]
00000000: 1848 0cbf c057 2e3d 2035 f2bd 00c0 983e
00000010: fc90 46bf 38ca 61bf aa98 4b3f 8603 44bf
-0.54797506 0.042564154 -0.11826539 0.29833984 -0.7756498 -0.88199186 0.7952982 -0.76567876

prescalers.W.weight f4 [8, 1]
00000000: fca4 ac3e e054 5ebf e88b 473e c04c aebc
00000010: 60c6 fbbe c0b0 a8bc 2072 fb3d 403e e53c
0.33719623 -0.8684826 0.19486964 -0.021276832 -0.49174786 -0.020592093 0.12277627 0.027983785

prescalers.W.bias f4 [8]
00000000: 18ac 413f bca2 12bf a8d8 e73e 02c7 6b3f
00000010: 92e0 37bf 2483 48bf 300b ad3e 04c2 b5be
0.7565322 -0.5727956 0.45282483 0.92100537 -0.7182704 -0.78325105 0.33797598 -0.35499585

prescalers.inventory_est.weight f4 [8, 1]
00000000: 40c0 b8bc 9ccd 6ebf 6a5f 1c3f 1037 87bd
00000010: 20d2 7b3d e8f9 b1be b0bc b13e 4057 86bc
-0.02255261 -0.93282485 0.6108309 -0.06602299 0.061479688 -0.34760976 0.3471427 -0.016399026

prescalers.inventory_est.bias f4 [8]
00000000: 600d ccbe e85e 7e3e 5c1b bebe a003 be3e
00000010: f430 75bf c81b c6be 8a67 2fbf 9cd4 d93e
-0.39853954 0.24840891 -0.3713025 0.3711214 -0.9577782 -0.3869307 -0.68517363 0.4254502

prescalers.has_inventory.weight f4 [8, 1]
00000000: 5cc4 33bf d459 463f 2055 793e 82e5 1c3f
00000010: 2efe 26bf 22f5 4fbf 500a 28be 68a9 0cbf
-0.70221496 0.77480817 0.24348879 0.612877 -0.652316 -0.8123342 -0.16410184 -0.54945993

prescalers.has_inventory.bias f4 [8]
00000000: 646c adbe d06e 523f d4d3 083f 5846 97be
00000010: ec73 1b3f 0e79 2bbf 44c2 14bf 3cc9 e23e
-0.33871758 0.82200336 0.53448224 -0.29545856 0.6072376 -0.6698159 -0.58108926 0.44294155

prescalers.avg_vehicle_age_inv.weight f4 [8, 1]
00000000: a40b dd3e 100a 94be 92b2 2ebf 580d 203e
00000010: 70f5 763f 0af5 7b3f b605 523f c2f9 3fbf
0.43172944 -0.28913927 -0.68241227 0.1563009 0.9646826 0.98420775 0.82039964 -0.74990475

prescalers.avg_vehicle_age_inv.bias f4 [8]
00000000: d6b2 293f 4886 3b3e 1ec9 4fbf 1089 833d
00000010: 7a39 77bf f0d3 5b3e 70c4 0cbf f43e 2cbf
0.66288507 0.18312943 -0.81166255 0.06422627 -0.9657208 0.21467566 -0.5498724 -0.6728356

prescalers.avg_standard_rate_inv.weight f4 [8, 1]
00000000: 204e 473d 0eaa 2c3f 7eb0 0f3f 2c6c 1ebf
00000010: 0c9d 113f a080 be3e b2e5 2abf f80f 84be
0.04865849 0.6744698 0.5612868 -0.6188381 0.5688026 0.37207508 -0.6675674 -0.25793433

prescalers.avg_standard_rate_inv.bias f4 [8]
00000000: 8063 75be 7e12 50bf 6498 69bf 26d7 2dbf
00000010: b8b9 683f 3c0a 88be f096 c43d 9a94 54bf
-0.23963737 -0.81278217 -0.91248155 -0.67906415 0.90908384 -0.26570308 0.095991015 -0.8303925

prescalers.relative_time_idx.weight f4 [8, 1]
00000000: 5823 30be 0c70 c13e 0002 a6bc d0f0 a0bd
00000010: 803d 5abc 4a21 2c3f ce57 34bf ece4 65bf
-0.17200983 0.37780797 -0.020264626 -0.07858431 -0.013320327 0.67238295 -0.7044648 -0.8980243

prescalers.relative_time_idx.bias f4 [8]
00000000: 4e94 76bf 4030 d03e 529a 0ebf 94ee dfbe
00000010: f070 07be 3c14 163f 0066 0e3c a86f 483e
-0.96320045 0.40661812 -0.55704224 -0.43736708 -0.13226676 0.58624625 0.008691311 0.19573843

prescalers.lag_1.weight f4 [8, 1]
00000000: 78d1 8fbe 1e53 0b3f c86c ffbe d454 453f
00000010: 22b9 523f 2449 66bf 701e a2be 10c9 f6bd
-0.280895 0.544237 -0.4988768 0.7708256 0.8231374 -0.89955354 -0.31663847 -0.120500684

prescalers.lag_1.bias f4 [8]
00000000: 86d9 09bf e0ed 5b3d 400c a8be d0ef 533f
00000010: 6006 a2bd 141a 0fbf 783d febe 1a41 6fbf
-0.5384754 0.053693652 -0.32821846 0.827878 -0.07911372 -0.5589917 -0.49656272 -0.9345871

prescalers.lag_7.weight f4 [8, 1]
00000000: a856 1dbf a8cf 463e 88a8 9a3e 94ab dcbe
00000010: 00b3 263c f872 003f 285b 073e 80b8 e63d
-0.6146035 0.19415152 0.30206704 -0.43099654 0.010174513 0.5017543 0.13218367 0.11265659

prescalers.lag_7.bias f4 [8]
00000000: 6af0 27bf 1caf 703f b027 97be 30f3 a83d
00000010: e035 fcbd a46f de3e 400b 54bf 9009 693e
-0.6560122 0.94017196 -0.29522467 0.08249509 -0.12314963 0.4344455 -0.82829666 0.22757554

prescalers.lag_28.weight f4 [8, 1]
00000000: 5cb5 46bf 6c10 4a3f a8d0 c9be 600a 513e
00000010: e087 873d 5481 cbbe 00aa 08be e481 733f
-0.7762048 0.7893131 -0.39417005 0.20414114 0.06617713 -0.39747107 -0.133461 0.9512007

prescalers.lag_28.bias f4 [8]
00000000: 4871 01bf a416 85be 9ebe 283f 304b 163f
00000010: d8a7 8d3e 5402 60bf 282d 25be a43d 7cbf
-0.5056348 -0.25993836 0.6591586 0.5870848 0.27667117 -0.8750355 -0.16130507 -0.98531556

prescalers.roll_mean_7.weight f4 [8, 1]
00000000: c408 fdbe 60f1 dabd 2485 c1be 9430 d23e
00000010: 0045 243c 1086 493e 3818 963e 0038 773e
-0.4942075 -0.1069057 -0.3779689 0.41052687 0.0100262165 0.19680047 0.29315352 0.24142456

prescalers.roll_mean_7.bias f4 [8]
00000000: f4fa 7abf 00c0 4e3e 60a4 523f 7cd1 ac3e
00000010: 90c5 373f c89c 0abf 9cf7 81be 5491 69bf
-0.98039174 0.2019043 0.82282066 0.33753574 0.7178583 -0.5414548 -0.25384223 -0.9123738

prescalers.roll_std_7.weight f4 [8, 1]
00000000: a8cc 69bf 2cfe 40bf b8d2 023f 1a92 16bf
00000010: 94dd ab3e c04b 313f 18dd b63e d499 d6be
-0.91327906 -0.75387836 0.5110278 -0.58816683 0.33567488 0.6925621 0.35715556 -0.41914237

prescalers.roll_std_7.bias f4 [8]
00000000: bc8a 233f 7cc6 bb3e a83b 683e b471 80be
00000010: ec5e 4b3f c870 f73e 80fd 33be 8c20 ec3e
0.63883567 0.3667487 0.22679007 -0.2508675 0.79441714 0.48328233 -0.17577171 0.4611858

prescalers.utilization_7.weight f4 [8, 1]
00000000: 7c97 2abf 0058 b1bd 1e89 54bf cc72 64bf
00000010: e885 503f dc14 083f 64c5 adbe 40a4 0ebf
-0.66637397 -0.08659363 -0.83021724 -0.89237666 0.81454325 0.5315683 -0.3393966 -0.55719376

prescalers.utilization_7.bias f4 [8]
00000000: b478 c4be 985b 73be e834 2ebe 8835 5b3f
00000010: ac0b 753f d8ac 053f 0a38 0fbf 2482 b4be
-0.3837334 -0.23765409 -0.1701237 0.8562856 0.95720935 0.52216864 -0.55944884 -0.3525554

prescalers.vehicle_count.weight f4 [8, 1]
00000000: e064 ff3d f678 18bf 4005 653f 94bc 17bf
00000010: 24f4 6c3f 0082 8fbb 98f1 673f 3850 273f
0.12470412 -0.5955957 0.89461136 -0.5927212 0.9256003 -0.004379511 0.9060302 0.6535678

prescalers.vehicle_count.bias f4 [8]
00000000: c01b b83d 8a47 7b3f e0ec b23d 3c87 c43e
00000010: a40b 84be d46e 61bf 22ee 1cbf ee0d 4ebf
0.08989668 0.98156035 0.087365866 0.38384426 -0.2579013 -0.88059735 -0.6130086 -0.80490005

prescalers.coupon_count.weight f4 [8, 1]
00000000: 6a5d 2f3f a0b1 e33e a03e 903e 605b 6d3f
00000010: e0b8 34bf c007 903e e0b6 303d 2a12 60bf
0.68501914 0.44471455 0.2817278 0.9271755 -0.70594597 0.28130913 0.043143153 -0.87527716

prescalers.coupon_count.bias f4 [8]
00000000: a84a 77bf 3aa1 783f 5661 593f 680f 3a3e
00000010: 6e58 24bf b0a9 0e3e 248b 363f 20cb 5ebe
-0.9659829 0.9712101 0.8491415 0.1816994 -0.64197433 0.13931918 0.7130606 -0.21757174

prescalers.coupon_flag_prev1.weight f4 [8, 1]
00000000: 8080 633c 74d5 fbbe 2485 413f f408 1cbf
00000010: ceda 0fbf c888 83be 40d2 01bd dcff 803e
0.013885617 -0.4918629 0.7559378 -0.6095116 -0.56193244 -0.25690293 -0.03169465 0.25195205

prescalers.coupon_flag_prev1.bias f4 [8]
00000000: 4a44 473f 04c5 1c3f 28bb 133e f843 863e
00000010: 9e01 593f fc58 96be 88be f3be b60e 443f
0.77838576 0.6123812 0.14426863 0.2622373 0.8476809 -0.29364765 -0.476063 0.7658495

prescalers.coupon_count_lag7.weight f4 [8, 1]
00000000: 8c16 5e3f 60c4 27bd c0aa 20bd f245 423f
00000010: 18fa 3ebe 8cb5 7c3f 3a94 3bbf e0b6 7b3e
0.86753154 -0.040958762 -0.03922534 0.7588798 -0.1865009 0.9871452 -0.7327305 0.2458148

prescalers.coupon_count_lag7.bias f4 [8]
00000000: 2eec 413f 1a7a 76bf 6869 87be 8626 5a3f
00000010: fe4c 393f 48d3 2abf 56ce 4c3f 0861 5b3f
0.75751007 -0.9628006 -0.26447606 0.8521503 0.72383106 -0.6672864 0.80002344 0.8569493

prescalers.coupon_per_vehicle.weight f4 [8, 1]
00000000: d840 c93e 90c0 81be 061c 13bf 186b 53be
00000010: 7038 a13e c8cc 583e 90e6 0c3e ce72 35bf
0.39307284 -0.25342226 -0.57464635 -0.20646322 0.3148837 0.21171868 0.13759828 -0.70878303

prescalers.coupon_per_vehicle.bias f4 [8]
00000000: 488a 4f3f a0bd f13d e896 533e 1ce7 54bf
00000010: 3041 90be 184b 77be 04e2 303f f47d 4b3f
0.81070375 0.11803746 0.20663035 -0.83165145 -0.28174734 -0.2414974 0.6909487 0.79489064

prescalers.region_total_rev.weight f4 [8, 1]
00000000: 0e77 1fbf ac5d 2ebf f4c1 17bf 108a 8fbe
00000010: a07b 44bf f08e 6c3f 7071 2abf e8fb 523f
-0.6229104 -0.6811168 -0.59280324 -0.2803502 -0.76751137 0.92405605 -0.6657934 0.8241563

prescalers.region_total_rev.bias f4 [8]
00000000: a004 d03e 5cda bbbe d056 fcbe e0dc cd3d
00000010: 96f4 7abf 081e dabe 2086 063e 48ee 76bf
0.4062853 -0.36690032 -0.49284983 0.10051894 -0.9802946 -0.42601037 0.13137102 -0.9645734

prescalers.region_vehicle_count.weight f4 [8, 1]
00000000: c487 6f3f 4c0f 18bf 8099 d9bc f27f 00bf
00000010: 8457 d6be b4d8 ccbe f889 4b3e ee74 1dbf
0.93566537 -0.5939834 -0.026562452 -0.5019523 -0.41863644 -0.4000908 0.1987685 -0.61506546

prescalers.region_vehicle_count.bias f4 [8]
00000000: 3024 d33e f872 c43e b89e 0d3f bc12 6ebf
00000010: 884f 17bf 6aeb 193f 0e8a 4c3f 70ac bf3e
0.41238546 0.38368964 0.5532031 -0.92997336 -0.5910573 0.6012484 0.79898155 0.37436247

prescalers.region_rev_per_vehicle.weight f4 [8, 1]
00000000: 4477 5dbf 4011 7b3e 3af7 2c3f 6045 3cbd
00000010: 2805 1c3f 6aba 34bf 1436 183f 0870 4b3e
-0.8651011 0.24518299 0.6756474 -0.0459646 0.6094537 -0.70596945 0.59457517 0.19866955

prescalers.region_rev_per_vehicle.bias f4 [8]
00000000: 3c45 b5be 50bf 4d3f 7e4e 68bf c293 5b3f
00000010: 107c 683e 3c35 8c3e e0a4 e1bd 1866 033e
-0.35404384 0.80370045 -0.9074477 0.85772336 0.22703576 0.27384365 -0.110177755 0.12831914

prescalers.region_vehicle_mean_rev.weight f4 [8, 1]
00000000: ac46 343f 80cf f53d 109f ef3d 4ce3 fc3e
00000010: a0b5 e9be 182b 64be 44b7 c73e d28e 633f
0.70420337 0.12002468 0.11700261 0.49392164 -0.4564638 -0.22282064 0.39007008 0.888898

prescalers.region_vehicle_mean_rev.bias f4 [8]
00000000: b04b 3cbe 0037 d63c 4084 d73e ce96 24bf
00000010: 12e0 4cbf 009f 6c3d b088 363e 92c4 45bf
-0.18388247 0.026149273 0.42093086 -0.6429261 -0.80029404 0.05776882 0.1782558 -0.7725307

static_variable_selection.flattened_grn.resample_norm.mask f4 [6]
00000000: 0000 0000 0000 0000 0000 0000 0000 0000
00000010: 0000 0000 0000 0000
0.0 0.0 0.0 0.0 0.0 0.0

static_variable_selection.flattened_grn.resample_norm.norm.weight f4 [6]
00000000: 0000 803f 0000 803f 0000 803f 0000 803f
00000010: 0000 803f 0000 803f
1.0 1.0 1.0 1.0 1.0 1.0

static_variable_selection.flattened_grn.resample_norm.norm.bias f4 [6]
00000000: 0000 0000 0000 0000 0000 0000 0000 0000
00000010: 0000 0000 0000 0000
0.0 0.0 0.0 0.0 0.0 0.0

static_variable_selection.flattened_grn.fc1.weight f4 [6, 46]
00000000: 4d91 8d3e f255 9ebe 1f4b 8ebe a030 b0be
00000010: 3fe4 923d ba0f 8abe 0e82 653e ab2a c83c
00000020: 1265 24be 2ed6 01bd 2275 0fbd d6ca 743e
00000030: b66f 82be 03ba b93e 35b1 3dbe 9f1d 6abe
00000040: 20f6 52bd 0668 88bc ffae 9bbe 73bb 953c
00000050: 4ecb 3bbe dd4f c7bd 8bc3 86bd 9f11 143e
00000060: 02d6 723e b083 5dbe 2563 d73d 69cb d73c
00000070: 1a76 2d3d a439 20be 615f 5b3e 0ef0 95bd
00000080: e9bb dfbc e687 843e a4e5 98be b982 e7bd
00000090: 48df 3c3d 63e6 8bbe 55d6 2abe 863f 643e
000000a0: d894 efbd 57d1 d33e 73b0 ecbd ba41 b73d
000000b0: c360 743c c531 2dbe a1be 07be 8fb6 4f3e
000000c0: bc75 0c3f d848 8bbe 4ee0 9a3e 27a2 503d
000000d0: f80b 6fbd 866d df3c f552 533e 8f46 5e3d
000000e0: f8e9 8cbd 7200 673e 5381 513e c33d 673d
000000f0: d270 553d 4bd0 a8be 2ece 9b3e 118a 71bd
00000100: 6e6e 553f 765a 0d3f d1bc 81be 51f0 66bd
00000110: c9a3 20be 318e d1be e388 26be 025c 8b3e
00000120: 8c60 9fba 080e 293c c761 623e 0139 293e
00000130: 8f17 b33d ee28 5abd b2cf 063e 8989 cdbc
00000140: fa79 dc3d 0ff6 003e c5e2 063f ccf0 763d
00000150: 25c3 8cbd 1970 283e 8933 d93d 19d1 1ebe
00000160: dde6 9c3e db0c 383d 44f7 94be a37f 40be
00000170: 328f 863e c333 513e 6d8e 08bd 7e4e a0be
00000180: 68c5 753b 3fbf ab3d 9531 113e fc50 3ebd
00000190: 0b79 433c 4745 863e a58f 0f3c ad9a 363e
000001a0: 027d 01be 358e d03c a06e cdbd dcaa 0f3e
000001b0: b10e 84be beb4 81bc 5d7d f0bc e0c9 98be
000001c0: c79b 6b3e d056 3d3e b630 7fbd 5391 d5bd
000001d0: 51c2 833e 16b6 773d 4d9a d63d 7699 7bbd
000001e0: a658 d1bd 556f 4cbe f751 5b3d ac79 353d
000001f0: 191b bd3e b3a9 54bc b881 a03e 7c69 02be
00000200: 3db4 4e3e a15d 063d bfa9 143b 13e3 dc3d
00000210: 73fa 553e a0ad b73e e021 2bbe ddb4 1b3e
00000220: b49c b4be 50aa c0bc d6bc dabc 91e6 48bd
00000230: e18e 883d 47ea 013e 0ddd c4bd 4c74 ac3d
00000240: e003 453e a0a5 0e3d cb21 6c3e 0f1d 13be
00000250: 0ccb 403d 639c 9ebd 9d91 163f 5be5 90bc
00000260: 6d1c 303d f504 c03e cf23 103f 62ac 1d3e
00000270: 1c27 633d ad9f 0e3e bf24 21be 24ac 593e
00000280: 1bf4 d6bd ea10 2cbd 2cd4 40bc 2297 0abe
00000290: 6137 4bbd 386e 2ebe 619c 8a3e 2e9e 333e
000002a0: 6121 383e 92bc b8be ef1c 573d ae65 943d
000002b0: 4b9e 663e c145 d0be 9050 0fbb 919c 2e3e
000002c0: 0fc7 a13d 3c42 4c3e 1b9a 07be 1f14 e83d
000002d0: fcf7 e13d 7fa9 6e3d 7512 c23d f48f a5bd
000002e0: 7d9c 60be 2edf f6bd 3fa4 b03d d628 cebc
000002f0: d152 06be fe2f a73d 2347 d6be 741e adbd
00000300: e57b c03e dde9 d0bd eada 253e 34b3 df3d
00000310: 2c34 a53e cdca 8bbd 0dcf 153d 0fdd 19be
00000320: 5e87 6cbe 6fa2 e5bc 0c02 d0be d940 7e3e
00000330: 1bbf f63d 795c 06be 4bda c7be 4e32 36be
00000340: d786 523e e685 c8be bfc1 efbd b789 5d3e
00000350: 9f26 793e 6fb5 143e 8d32 ac3d 6675 113b
00000360: c5cb 66be 9683 9b3c 1396 d1bd 58e7 903e
00000370: a941 763e beea bbbd f002 e6bd 5707 8dbc
00000380: c839 dbbe cbbb e3be 27fd bd3e 5ba8 b13e
00000390: b4f4 fabd 0e37 933e 5de0 203b 72d8 19be
000003a0: 1c85 043e a09f 8c3d a73e 83bc 7ce8 67be
000003b0: 89e2 3ebe d2b7 7dbd b9ea a23d 046c d7bd
000003c0: 35a4 583d 15ee 3d3d da2f 883e 2035 9bbe
000003d0: 7649 06be 9f9b 00be 9d7c 9f3e 1c7b 47be
000003e0: de87 a7bd 3de2 8a3d 156a 72be 549c 393d
000003f0: fff7 483e 827c 083d 767a 8b3e 0b1c 013e
0.27649918 -0.30924946 -0.27791688 -0.34412098 0.07172441 -0.26965123 0.22412893 0.024434408
-0.1605418 -0.0316984 -0.035023816 0.23905501 -0.25475854 0.36274728 -0.1852463 -0.22862862
-0.051504254 -0.016651165 -0.3040695 0.01827786 -0.18339273 -0.097320296 -0.065802656 0.14459847
0.2371445 -0.21632266 0.10516957 0.02634211 0.04234896 -0.15646988 0.21423103 -0.073211774
-0.027311282 0.25884932 -0.29862702 -0.1130423 0.046111375 -0.2732421 -0.16683324 0.22289857
-0.116983116 0.4137065 -0.115570925 0.08948083 0.014915648 -0.16913517 -0.13256313 0.20284484
0.5486715 -0.27204013 0.30249256 0.05093589 -0.058361024 0.027273905 0.20637114 0.05426651
-0.068805635 0.22558764 0.2045949 0.056455385 0.052109547 -0.32971415 0.3043074 -0.05896956
0.8337163 0.5521616 -0.25339368 -0.056381527 -0.15687479 -0.40928796 -0.16263156 0.27218634
-0.001215951 0.010318287 0.22107612 0.16525652 0.08744728 -0.05326169 0.13165167 -0.025089996
0.10765453 0.12593864 0.5268977 0.060288236 -0.06873158 0.16449012 0.10605533 -0.15509452
0.30644885 0.044934135 -0.290949 -0.1879869 0.26281124 0.20429902 -0.033338953 -0.31309885
0.0037501696 0.08386087 0.1417907 -0.04646395 0.011930714 0.2622473 0.008762275 0.17832442
-0.12645343 0.025458435 -0.10030866 0.14030021 -0.2579246 -0.015833255 -0.029356653 -0.29841518
0.23008643 0.18490148 -0.062302314 -0.10428109 0.2573419 0.060476385 0.10478649 -0.06142565
-0.102219865 -0.19964345 0.053544965 0.04430549 0.36934736 -0.012979913 0.31348968 -0.12735552
0.20185943 0.032804135 0.0022684184 0.107854985 0.2089632 0.35874653 -0.16712141 0.15205713
-0.35275805 -0.023518711 -0.026701372 -0.04904801 0.06667877 0.12687026 -0.096124746 0.08420619
0.1923976 0.03482592 0.23059766 -0.14366554 0.04706864 -0.07744672 0.5881594 -0.01768749
0.04299586 0.37503782 0.5630464 0.1539779 0.05545722 0.13928099 -0.15736674 0.21257073
-0.10495778 -0.042008318 -0.011769336 -0.13534215 -0.04961336 -0.17034233 0.27072433 0.1754081
0.17981483 -0.36081368 0.052517828 0.07245956 0.22521321 -0.40678218 -0.0021868087 0.17051913
0.078992955 0.19947141 -0.1324238 0.11331963 0.110336274 0.058267113 0.09476177 -0.080840975
-0.21934696 -0.12054287 0.086250775 -0.025165956 -0.1311753 0.08163451 -0.41851148 -0.08453074
0.37594524 -0.10200856 0.1619679 0.10922852 0.32266366 -0.068257906 0.036574412 -0.15025733
-0.23098513 -0.028031556 -0.40626562 0.24829425 0.12048169 -0.13121213 -0.39033732 -0.17792627
0.2055925 -0.39164656 -0.11706876 0.21634565 0.24331139 0.14522336 0.08408079 0.002219522
-0.2253867 0.018983644 -0.102337025 0.283015 0.24048485 -0.09175633 -0.11231029 -0.017215414
-0.4281752 -0.44479212 0.37107202 0.34698758 -0.12253705 0.2875294 0.0024547793 -0.15023974
0.12941402 0.068663836 -0.016021086 -0.2264728 -0.18641104 -0.061942883 0.07954926 -0.10518649
0.052890975 0.04636963 0.26599008 -0.3031397 -0.1311396 -0.12559365 0.3114976 -0.19480556
-0.081802115 0.06781433 -0.2367328 0.0453151 0.19625853 0.033321865 0.27241868 0.12608354

static_variable_selection.flattened_grn.fc1.bias f4 [6]
00000000: 0000 0000 0000 0000 0000 0000 0000 0000
00000010: 0000 0000 0000 0000
0.0 0.0 0.0 0.0 0.0 0.0

static_variable_selection.flattened_grn.fc2.weight f4 [6, 6]
00000000: 1d0b 963e a402 d9be 7260 bb3d 5dc8 0cbe
00000010: e287 523f 3c91 acbf 54f7 26bd 6ad3 1a3d
00000020: a165 20ba 45e3 85be cd0c 163e ef46 20bf
00000030: 4d6a c3bd 2f53 20be df69 9f3e dc39 b13e
00000040: c527 833e 0604 653d 909a a6bd 2d04 013f
00000050: 3a21 163f 3f55 153f 83d6 1dbf 3a46 38bf
00000060: b533 613f 15ee a1be 1266 92bf a359 113f
00000070: 6fc5 3dbf 8bec ffbe 958a 8abd fee6 50bd
00000080: 1e2e a2bf b312 173e 709d abbf 93cf 9ebd
0.29305354 -0.42384827 0.09149255 -0.13748308 0.8223859 -1.3481822 -0.040763214 0.037799276
-0.00061186595 -0.26149955 0.1465332 -0.62608236 -0.0954176 -0.15656732 0.3113546 0.34614456
0.2561628 0.05591204 -0.08134949 0.50396997 0.5864445 0.583332 -0.61655444 -0.7198216
0.87969524 -0.31626955 -1.1437399 0.567774 -0.74129385 -0.49985155 -0.06764714 -0.05100154
-1.2670324 0.14753227 -1.3407421 -0.077544354

static_variable_selection.flattened_grn.fc2.bias f4 [6]
00000000: 0000 0000 0000 0000 0000 0000 0000 0000
00000010: 0000 0000 0000 0000
0.0 0.0 0.0 0.0 0.0 0.0

static_variable_selection.flattened_grn.gate_norm.glu.fc.weight f4 [12, 6]
00000000: 3064 65be d236 713e d7d2 fdbe d4d9 93be
00000010: fddf f7bd b830 0abf 3299 0a3f 48b4 c13e
00000020: e6f0 883e 52ee 8a3e e272 113f d4ca 60be
00000030: 28d1 0d3e 26ce 46be eeb8 c8bd 2556 f2be
00000040: ecbf b03e e5ed d4be 341c 84be 8fc2 033f
00000050: e27b adbe 70fd 973d 18a6 07bf dba9 abbe
00000060: 9b18 063f a6fa 9e3e 3367 c83c bd60 93be
00000070: 6771 e13e e21e 0b3f 23f4 ec3d d78f bebe
00000080: d3ef a23c 5502 903e 2aa6 2c3e 5b00 053f
00000090: 5d1a 053f c1ba 953e ed97 cdbe bfab ffbc
000000a0: dbf8 e43d b632 45be 1ed7 303e 1ef1 c03e
000000b0: 85b5 9fbe af39 34be b9da e0be f0aa b73d
000000c0: cbf1 b03e 77ae 053f 03fe f73c 787e c03e
000000d0: 93bd 0ebf 8495 4dbc a013 dfbd 8720 88be
000000e0: 86d3 083f cf95 b83e 5d57 f6be 7d38 06bf
000000f0: 3a7b 8abe c4af 483e 413e 8c3e fe05 993e
00000100: 1883 e43e 8932 bdbe f35a 473d b9bb 83be
00000110: 4266 8fbe 3e02 b73b ff21 50bd 4c80 efbe
-0.224015 0.23556069 -0.4957492 -0.28877127 -0.12103269 -0.5398059 0.5414001 0.37832856
0.2674629 0.2713495 0.5681592 -0.21952373 0.13849318 -0.19414577 -0.098008975 -0.47331348
0.34521425 -0.4158775 -0.25802767 0.5146875 -0.33883578 0.07421386 -0.52987814 -0.33528027
0.52381295 0.31050605 0.024463272 -0.28784743 0.44031832 0.54344 0.11570003 -0.37219116
0.019889748 0.2812678 0.16860262 0.5195367 0.5199335 0.29244044 -0.40154973 -0.031209825
0.11180278 -0.19257626 0.1726956 0.37683958 -0.31193176 -0.1760013 -0.43916872 0.089681506
0.34559473 0.5221934 0.03027249 0.37596488 -0.5575802 -0.012547854 -0.10892415 -0.26587316
0.5344776 0.36051795 -0.48113528 -0.52429944 -0.2704714 0.195983 0.27391246 0.29887384
0.44631267 -0.36952618 0.04867072 -0.2572916 -0.28007704 0.005584984 -0.05081367 -0.4677757

static_variable_selection.flattened_grn.gate_norm.glu.fc.bias f4 [12]
00000000: 0000 0000 0000 0000 0000 0000 0000 0000
00000010: 0000 0000 0000 0000 0000 0000 0000 0000
00000020: 0000 0000 0000 0000 0000 0000 0000 0000
0.0 0.0 0.0 0.0 0.0 0.0 0.0 0.0
0.0 0.0 0.0 0.0

static_variable_selection.flattened_grn.gate_norm.add_norm.norm.weight f4 [6]
00000000: 0000 803f 0000 803f 0000 803f 0000 803f
00000010: 0000 803f 0000 803f
1.0 1.0 1.0 1.0 1.0 1.0

static_variable_selection.flattened_grn.gate_norm.add_norm.norm.bias f4 [6]
00000000: 0000 0000 0000 0000 0000 0000 0000 0000
00000010: 0000 0000 0000 0000
0.0 0.0 0.0 0.0 0.0 0.0

static_variable_selection.single_variable_grns.spot_id.mask f4 [8]
00000000: 0000 0000 0000 0000 0000 0000 0000 0000
00000010: 0000 0000 0000 0000 0000 0000 0000 0000
0.0 0.0 0.0 0.0 0.0 0.0 0.0 0.0

static_variable_selection.single_variable_grns.spot_id.norm.weight f4 [8]
00000000: 0000 803f 0000 803f 0000 803f 0000 803f
00000010: 0000 803f 0000 803f 0000 803f 0000 803f
1.0 1.0 1.0 1.0 1.0 1.0 1.0 1.0

static_variable_selection.single_variable_grns.spot_id.norm.bias f4 [8]
00000000: 0000 0000 0000 0000 0000 0000 0000 0000
00000010: 0000 0000 0000 0000 0000 0000 0000 0000
0.0 0.0 0.0 0.0 0.0 0.0 0.0 0.0

static_variable_selection.single_variable_grns.vehicle_type.mask f4 [8]
00000000: 0000 0000 0000 0000 0000 0000 0000 0000
00000010: 0000 0000 0000 0000 0000 0000 0000 0000
0.0 0.0 0.0 0.0 0.0 0.0 0.0 0.0

static_variable_selection.single_variable_grns.vehicle_type.norm.weight f4 [8]
00000000: 0000 803f 0000 803f 0000 803f 0000 803f
00000010: 0000 803f 0000 803f 0000 803f 0000 803f
1.0 1.0 1.0 1.0 1.0 1.0 1.0 1.0

static_variable_selection.single_variable_grns.vehicle_type.norm.bias f4 [8]
00000000: 0000 0000 0000 0000 0000 0000 0000 0000
00000010: 0000 0000 0000 0000 0000 0000 0000 0000
0.0 0.0 0.0 0.0 0.0 0.0 0.0 0.0

static_variable_selection.single_variable_grns.region_code.mask f4 [8]
00000000: 0000 0000 0000 0000 0000 0000 0000 0000
00000010: 0000 0000 0000 0000 0000 0000 0000 0000
0.0 0.0 0.0 0.0 0.0 0.0 0.0 0.0

static_variable_selection.single_variable_grns.region_code.norm.weight f4 [8]
00000000: 0000 803f 0000 803f 0000 803f 0000 803f
00000010: 0000 803f 0000 803f 0000 803f 0000 803f
1.0 1.0 1.0 1.0 1.0 1.0 1.0 1.0

static_variable_selection.single_variable_grns.region_code.norm.bias f4 [8]
00000000: 0000 0000 0000 0000 0000 0000 0000 0000
00000010: 0000 0000 0000 0000 0000 0000 0000 0000
0.0 0.0 0.0 0.0 0.0 0.0 0.0 0.0

static_variable_selection.single_variable_grns.encoder_length.fc1.weight f4 [8, 8]
00000000: 791d 6c3e 1748 f6be 2f6f 04bf 36ef ddbe
00000010: 28a2 9fbc 67cf a8bf e5eb c53e 1224 f83c
00000020: d454 ed3d 0341 73be 9b1b e3be 2e93 f73e
00000030: a590 1b3e 7a1d a3be d45a 8b3f 822c cd3e
00000040: 9579 bb3e 4998 b33e 3760 90be db2e 603f
00000050: 0ac5 9bbd 5b3a 5abd 570f 1f3f fb2d 15bd
00000060: 3cf8 22bf a450 08bf 1e8f 393f 018f 37bf
00000070: 2561 143f bb27 3e3f 7102 44bf 3fab a3be
00000080: 0b0b 90bd 2512 71be 557e c7be 8043 ac3e
00000090: 593d 04bd ec18 03bf b356 6dbf b89f 043f
000000a0: 6fce 0d3f 0eba 013c 111f 493f d89b 1cbf
000000b0: 1cf2 aabe dc9b 833e 2724 b73e b4fd 173f
000000c0: fc62 f5be a4bc 3d3f 8df3 a7bb 4d42 e8be
000000d0: 81da 26bf 4378 613e e139 283e ea26 97be
000000e0: 532a 053e f089 bb3e d9f3 cf3d aa1a eabe
000000f0: f34d 99bf 53e2 42bf c66e 503f 2b56 bfbe
0.23058118 -0.48101875 -0.5173215 -0.43346566 -0.019486502 -1.3188294 0.38656536 0.030290637
0.11588445 -0.23755269 -0.44357 0.48354477 0.15191896 -0.31858426 1.0887094 0.4007302
0.36616197 0.35077122 -0.28198406 0.87571496 -0.076059416 -0.05327831 0.6213278 -0.036420804
-0.63660026 -0.5324805 0.72484004 -0.7170258 0.5796073 0.74279374 -0.76566225 -0.31966588
-0.07033356 -0.23542078 -0.3896357 0.33645248 -0.03228507 -0.512099 -0.9271042 0.5180621
0.5539312 0.007917894 0.7856303 -0.611753 -0.3338784 0.2570485 0.3576977 0.59371495
-0.47927082 0.7411597 -0.005125469 -0.45363083 -0.6517716 0.22018532 0.16428329 -0.29521877
0.13004427 0.36628675 0.10153932 -0.45723468 -1.1976913 -0.76126593 0.81419027 -0.37370428

static_variable_selection.single_variable_grns.encoder_length.fc1.bias f4 [8]
00000000: 0000 0000 0000 0000 0000 0000 0000 0000
00000010: 0000 0000 0000 0000 0000 0000 0000 0000
0.0 0.0 0.0 0.0 0.0 0.0 0.0 0.0

static_variable_selection.single_variable_grns.encoder_length.fc2.weight f4 [8, 8]
00000000: 3f23 95be 5bb0 bebd 732e 7bbe 0df2 943e
00000010: fd85 a3bd 7f15 0d3f 059d 6b3e 1115 2fbf
00000020: b38e 51be 8664 7ebe 735e b4be ad94 4d3d
00000030: 2dd6 2a3f 3f8e b73e d3f6 653f 820a ffbe
00000040: 0427 c4be 74a1 57bf 9ec5 ce3e 61bd 193f
00000050: 0e36 353e 6d4a fe3e 0ab6 533e 4bc2 0a3e
00000060: 8b86 a3bf d6b0 f3be 66c0 e6bd 3efe afbe
00000070: 6097 723f 545b eebe d902 913d 5a9c 203f
00000080: 0290 d6be 7667 ee3e 69f9 933f 7c1c 0ebd
00000090: e8fe adbd 0c7f 903f 51a1 1d3e bc57 2bbf
000000a0: e00d 28bf 6213 c3be eee0 a0bd 6795 64bf
000000b0: 9c48 fc3e 525c 4cbf 7564 6abe b2f8 293d
000000c0: d571 0c3f 0915 e13e a0fb 90be 0227 7ebe
000000d0: 2291 16bf 9a5f e13e 3bc1 e23e c56d d03d
000000e0: dad7 523f 64de fa3e 05b3 f2be fc74 2f3f
000000f0: 2b77 39bd ba66 2dbe 54ef f4be 61b4 13bf
-0.29128453 -0.09310981 -0.24529438 0.2909092 -0.079845406 0.55110925 0.23009117 -0.6839152
-0.20464592 -0.24843034 -0.3522831 0.050190616 0.66733056 0.35850713 0.8982975 -0.49812704
-0.38311017 -0.8423073 0.40385145 0.60054594 0.17696401 0.49666157 0.20674911 0.1355068
-1.2775434 -0.47595853 -0.11267166 -0.3437366 0.9476223 -0.46554053 0.07080621 0.62738574
-0.41906744 0.4656331 1.1560489 -0.034695134 -0.08495885 1.1288772 0.15393569 -0.6693075
-0.6564617 -0.38100725 -0.07855402 -0.8929047 0.49274147 -0.7982837 -0.22889884 0.04149694
0.54861194 0.4396136 -0.28316975 -0.24819568 -0.58815205 0.4401825 0.44288048 0.10177187
0.82360613 0.48997796 -0.47402206 0.6853788 -0.045279663 -0.16933718 -0.47838843 -0.5769711

static_variable_selection.single_variable_grns.encoder_length.fc2.bias f4 [8]
00000000: 0000 0000 0000 0000 0000 0000 0000 0000
00000010: 0000 0000 0000 0000 0000 0000 0000 0000
0.0 0.0 0.0 0.0 0.0 0.0 0.0 0.0

static_variable_selection.single_variable_grns.encoder_length.gate_norm.glu.fc.weight f4 [16, 8]
00000000: 7c01 753e b847 d63e 80ba 7dbd 76f6 833e
00000010: 7086 22bd 3047 873d 7258 96be 2472 9e3e
00000020: a807 e93d 7043 cd3d 70f1 1cbd 5434 4f3e
00000030: 4844 f7be 4033 d13e 4ad5 c83e fe28 893e
00000040: 8062 95bc 26e0 eebe 78b3 0abe 2cab cdbe
00000050: 044e 75be 8455 c93e e04a 6cbd 120b ff3e
00000060: 4c0c 81be c875 6ebe ec2c cdbe b801 433e
00000070: 6481 3d3e f445 813e 2e6a dd3e 98ea 993e
00000080: 42c6 eabe 0019 6b3c 0651 df3e 18a8 b23e
00000090: 2027 463e 2069 70be 2000 d8be c2c0 f63e
000000a0: 24ae 27be 9004 2f3e 4463 0abe e8e4 2cbe
000000b0: 0050 363e 76d4 ec3e 3838 f3bd 2cca 5d3e
000000c0: 5022 4e3e b093 a3bd 58c1 cb3d c81d 2a3e
000000d0: 728d e43e 5446 41be 56e8 c43e 303b 04bd
000000e0: 84f3 493e be8e cfbe 300e ac3e f8c1 d73e
000000f0: 1884 ee3d c06f 7b3c cc9d 053e 1431 cabe
00000100: 4eac dcbe 1ead be3e eee1 e5be a05c e5bd
00000110: 7eca 9cbe bcf7 eebe b848 59be 803d 84bb
00000120: dc6d cdbe 8c3e c4be 9878 cebe a001 94bc
00000130: 385c 08be 0e22 bc3e 6610 f5be ee9b dfbe
00000140: f810 1cbe 4afd ff3e 382c e93e 9067 84bd
00000150: a88e 0bbe b090 8d3d 201a ac3c d082 403d
00000160: b848 5dbe a03c c7bc c800 c53d 12fa 983e
00000170: a47e a1be e84f d0bd 6c8a 803e 8282 a83e
00000180: 84ac 8a3e d05b f8bd b081 e93d c440 2fbe
00000190: 3c6c d93e 926c 913e dc03 e7be 6cb2 783e
000001a0: a04e fb3e 6cea 083e dc0e cbbe c8ab a43e
000001b0: c04a db3c b45f 09be 3074 5f3e 98c2 c63e
000001c0: a858 683e ecd8 c9be bcae 553e e4f8 9dbe
000001d0: e01c efbe 2cf1 7dbe 62aa 863e 36d0 c43e
000001e0: 4827 173e 065a 9d3e d643 f4be ac50 79be
000001f0: 1411 92be 387f d9be b4db 9fbe bec9 b6be
0.23926347 0.41851592 -0.06194544 0.25773972 -0.03967899 0.06605375 -0.29364353 0.30946457
0.113784134 0.10022628 -0.03831619 0.20234805 -0.48294282 0.40859413 0.39225227 0.26789087
-0.018235445 -0.46655387 -0.13545024 -0.40169656 -0.23955542 0.39323056 -0.057688594 0.49813133
-0.25204694 -0.23287117 -0.40073335 0.19043624 0.1850639 0.25248682 0.4324507 0.30061793
-0.45854384 0.014349222 0.43616503 0.3489387 0.19350863 -0.23477602 -0.42187595 0.48193938
-0.16375023 0.17091584 -0.1351443 -0.16884196 0.17803955 0.46255845 -0.11875957 0.21659154
0.20130277 -0.079871535 0.09948987 0.16612923 0.44639164 -0.18874484 0.38458508 -0.032283008
0.197218 -0.4053859 0.33604574 0.42140174 0.11646289 0.0153464675 0.13048476 -0.3949057
-0.43100208 0.37241453 -0.44898933 -0.111993074 -0.3062324 -0.4667338 -0.21219146 -0.0040356517
-0.4012288 -0.3832897 -0.4032638 -0.018067181 -0.13316429 0.36744732 -0.47864074 -0.43673652
-0.15240848 0.49997932 0.4554155 -0.064650655 -0.13628638 0.069123626 0.021008551 0.046999753
-0.21609771 -0.0243209 0.0961929 0.29878289 -0.31541932 -0.10171491 0.25105608 0.3291207
0.27084744 -0.12126887 0.11401689 -0.1711455 0.4246539 0.28403145 -0.45120132 0.24286813
0.49083424 0.13370675 -0.39659774 0.3216231 0.026769042 -0.13415414 0.21821666 0.38820338
0.2269007 -0.3942331 0.20867437 -0.3085395 -0.46701717 -0.24799031 0.26301867 0.38440102
0.14761078 0.30732745 -0.47708005 -0.2434718 -0.28528655 -0.42479873 -0.31222308 -0.35700792

static_variable_selection.single_variable_grns.encoder_length.gate_norm.glu.fc.bias f4 [16]
00000000: 0000 0000 0000 0000 0000 0000 0000 0000
00000010: 0000 0000 0000 0000 0000 0000 0000 0000
00000020: 0000 0000 0000 0000 0000 0000 0000 0000
00000030: 0000 0000 0000 0000 0000 0000 0000 0000
0.0 0.0 0.0 0.0 0.0 0.0 0.0 0.0
0.0 0.0 0.0 0.0 0.0 0.0 0.0 0.0

static_variable_selection.single_variable_grns.encoder_length.gate_norm.add_norm.norm.weight f4 [8]
00000000: 0000 803f 0000 803f 0000 803f 0000 803f
00000010: 0000 803f 0000 803f 0000 803f 0000 803f
1.0 1.0 1.0 1.0 1.0 1.0 1.0 1.0

static_variable_selection.single_variable_grns.encoder_length.gate_norm.add_norm.norm.bias f4 [8]
00000000: 0000 0000 0000 0000 0000 0000 0000 0000
00000010: 0000 0000 0000 0000 0000 0000 0000 0000
0.0 0.0 0.0 0.0 0.0 0.0 0.0 0.0

static_variable_selection.single_variable_grns.rev_per_vehicle_center.fc1.weight f4 [8, 8]
00000000: c4a4 dd3e 68c5 6bbd 56d1 d3bd 7985 1bbe
00000010: 7620 b73e a711 533e 7ec4 03bc 1e28 69bf
00000020: 805b 0fbe 2bd1 92bf 75fe 6bbf c706 6fbd
00000030: fb6f 38bf 6572 273d e131 8bbe fd7f b5be
00000040: cfad ea3e a9cd 7fbe 3a64 2fbf 3dd8 96be
00000050: a9c9 953e da1e 44bd 1858 06bf f0fb d83e
00000060: 86dd 923d 7100 6fbe 5a5f ab3e 988e cd3e
00000070: 7477 10bf e00e 003f 42d5 733e a743 f33d
00000080: 0388 023e 71f9 643f 887d d63e 18c0 dcbe
00000090: d787 7dbf efe2 333f c63b 4f3e da08 af3d
000000a0: b12f d4be 0ede d13e 9e26 e4be 990e 40bf
000000b0: 4196 05bf 6085 2d3d 43f7 7bbf 429f 30bf
000000c0: 898d 6ebe f0b2 0abf dc6a 9a3f 76bc 183e
000000d0: 4d24 96be 7d0e 103f beeb e9bd 5f06 25be
000000e0: b90a de3d 7d31 823f 9b2f e5be 394c 07bf
000000f0: 5740 b33e 4240 d23c cd94 2abe 4559 333d
0.4328977 -0.05756131 -0.10342662 -0.15187635 0.35766953 0.20612203 -0.008042453 -0.9107684
-0.13999748 -1.1470083 -0.92185146 -0.058356073 -0.7204587 0.04088058 -0.27186492 -0.3544921
0.4583573 -0.24980797 -0.6851231 -0.29461852 0.29255417 -0.047880985 -0.5247817 0.42379713
0.071711585 -0.23340012 0.33471185 0.40147853 -0.5643227 0.500227 0.2381182 0.11878138
0.12747197 0.8944312 0.41892648 -0.43115306 -0.990354 0.7026815 0.20237646 0.0854661
-0.41442636 0.40989727 -0.44560713 -0.75022274 -0.52182394 0.042363524 -0.98424166 -0.6899301
-0.23296179 -0.54179287 1.2063861 0.14915642 -0.2932457 0.5627211 -0.114219174 -0.16115712
0.10841889 1.0171353 -0.44762883 -0.5285068 0.35010025 0.025665406 -0.16658325 0.043786306

static_variable_selection.single_variable_grns.rev_per_vehicle_center.fc1.bias f4 [8]
00000000: 0000 0000 0000 0000 0000 0000 0000 0000
00000010: 0000 0000 0000 0000 0000 0000 0000 0000
0.0 0.0 0.0 0.0 0.0 0.0 0.0 0.0
