.lr_find_7ac5e88f-ab94-43be-9b22-05513ba62d14.ckpt (torch, 357210 bytes, 583 tensors)

input_embeddings.embeddings.spot_id.weight f4 [2, 1]
000000 00 00 00 00 9d e6 03 3e
       0.0 0.1288094

input_embeddings.embeddings.vehicle_type.weight f4 [17, 8]
000000 00 00 00 00 00 00 00 00 00 00 00 00 00 00 00 00
       0.0 0.0 0.0 0.0
000010 00 00 00 00 00 00 00 00 00 00 00 00 00 00 00 00
       0.0 0.0 0.0 0.0
000020 6e 56 3a bf d1 36 0f bf a0 d2 44 bf 9f 2f 43 3f
       -0.7278813 -0.5594302 -0.7688389 0.7624454
000030 29 9e c8 bf 48 31 75 be da a8 14 40 26 9f 76 bf
       -1.5673267 -0.2394458 2.322806 -0.9633659
000040 e2 14 42 bf 50 06 8a 3f 44 01 4d 3f 93 1e d7 3f
       -0.75813115 1.0783176 0.80080056 1.6806206
000050 45 33 b6 3e 86 c6 2f bf 34 99 fc be 93 48 77 3e
       0.3558599 -0.686623 -0.49335635 0.24148779
000060 ed 2e 6d be 00 0c 2b 3d 7a ce 80 be b0 1f 5c 3f
       -0.23162432 0.04175949 -0.2515753 0.8598585
000070 82 94 9e be 91 9a ca be 3c ac 4d 3f e0 20 1f bf
       -0.30972677 -0.3957105 0.80340934 -0.6215954
000080 48 44 a3 3e 8d 5a d9 be 74 87 9c 3e b2 4b 46 bf
       0.31888032 -0.42451897 0.30572093 -0.7745925
000090 3f 00 0f 3d 9d 67 a4 3e bb 6b c9 3f 8e 70 58 bf
       0.034912344 0.321103 1.5736002 -0.84546745
0000a0 63 17 a3 bf b6 db 07 40 1d 09 9e bf d9 cf f9 be
       -1.2741512 2.122785 -1.2346531 -0.48791388
0000b0 fd 82 b5 bf d7 71 65 3f 97 69 4c 3d e8 11 11 40
       -1.41806 0.8962683 0.049905386 2.266718
0000c0 0d da f9 be c8 7e 98 3f ce 62 50 bf 06 6a 3c bf
       -0.48799172 1.191369 -0.81400764 -0.7359928
0000d0 cd 4d 56 bf c1 21 6c bf 43 d9 e7 3f 22 6b 24 3e
       -0.83712465 -0.92239004 1.8113178 0.16056493
0000e0 fb 4e c8 bd a8 1b ec 3f ec 9e 97 bf 25 18 b1 3f
       -0.09780689 1.844594 -1.1845374 1.3835493
0000f0 bd e9 99 bf 2f 33 35 3f a1 b6 89 bf aa 20 09 3f
       -1.2024456 0.70781225 -1.0758859 0.53565466
000100 ac 7b b1 3e 41 11 4a be c5 fc 86 bf 5c 95 a3 3f
       0.34664667 -0.19733144 -1.0545889 1.2779956
000110 66 d3 14 3e bb 98 6c 3e 76 c9 0d 3c 63 b4 11 be
       0.14533767 0.23105137 0.008653989 -0.14228968
000120 88 33 13 3f 08 48 24 bf a2 35 0d c0 a1 34 40 bf
       0.57500505 -0.6417241 -2.2063985 -0.75080305
000130 05 19 34 40 0c 36 b8 3e 67 ed b7 bd a1 b8 ea 3e
       2.814027 0.35978734 -0.08980828 0.45843986
000140 a0 43 09 3f ab 4d 06 3f e5 12 92 3f 3c 88 53 3d
       0.5361881 0.5246226 1.1412016 0.051643595
000150 63 65 3a 3f a1 ec 35 bf 26 21 1a bf f9 df 75 3f
       0.72810954 -0.7106419 -0.6020683 0.9604488
000160 2a 74 dc bf a9 e8 53 bf 8c d7 aa 3f 76 92 f7 3e
       -1.722295 -0.82776886 1.334703 0.48353928
000170 9c 4d 4a be 07 58 a2 3f a5 b4 9c 3f ad f1 c8 3d
       -0.19756168 1.2683114 1.2242628 0.09811721
000180 8a 08 24 3f b4 4f 15 3f 0e 91 88 3f 81 7a e6 be
       0.6407553 0.5832474 1.0669267 -0.45015338
000190 c1 c2 2d bf 61 06 13 3f 4d 41 40 3e 5d 1a b7 be
       -0.67875296 0.5743161 0.1877491 -0.357623
0001a0 38 a2 87 3e 2e f7 a2 3f 49 d1 ab ba f4 71 9b be
       0.2649095 1.2731683 -0.0013108636 -0.30360377
0001b0 3e 87 7c bf 40 84 fc 3d de 21 b3 3e 1c 06 1e 3f
       -0.98643863 0.12329912 0.34986776 0.6172807
0001c0 c0 e6 39 3f d4 ad ba 3d 8e 33 c7 be 89 25 07 3f
       0.7261772 0.09115186 -0.3890652 0.5279165
0001d0 cf fa 83 3f 7b 6b 34 bf d8 ae 81 3f f5 60 a9 be
       1.0310916 -0.704765 1.0131483 -0.33081785
0001e0 2b 80 bd 3f 99 9a b0 3e c7 49 b6 bf 59 3c ee bd
       1.4804739 0.3449295 -1.4241265 -0.11632604
0001f0 28 01 79 bf 7d 5d 75 3f f6 41 cf 3f 95 ad b9 3f
       -0.9726739 0.95845777 1.6192005 1.4506098
000200 bf be d9 be db 68 86 3e 39 35 b8 bf 45 79 05 3f
       -0.4252834 0.26251873 -1.4391242 0.5213817
000210 95 8f b2 3e 40 b4 77 3f b7 6e ee be ff 69 cd 3f
       0.3487517 0.96759415 -0.46568844 1.6047972

input_embeddings.embeddings.dow.weight f4 [7, 5]
000000 54 45 f3 bf f7 0f 6a 3e f3 a5 cb 3c 64 20 b1 be
       -1.9005532 0.22857653 0.024859404 -0.34595025
000010 c0 db 92 3e 7d 18 3b bf 15 04 33 3e e0 05 8c bf
       0.2868328 -0.7308424 0.17482026 -1.0939293
000020 97 13 cd bf ba 2b ad 3f 4e f8 a4 3f c7 33 56 3d
       -1.6021603 1.3528969 1.2888277 0.052295472
000030 32 ff c5 bf 7d b7 41 3f 72 88 46 3f c2 b2 01 40
       -1.5468504 0.75670606 0.7755195 2.0265355
000040 7d b5 12 3d 39 f7 f6 3d fa 3f 4e bf 40 8d ac be
       0.035817612 0.12058873 -0.8056637 -0.33701515
000050 55 71 96 bf 42 53 b7 3e 11 21 f5 3e 0b 46 ad 3f
       -1.1753336 0.35805708 0.4787679 1.3537
000060 af 27 23 be 38 92 d9 be 1f b9 71 3f f4 97 6e bf
       -0.15933107 -0.4249437 0.944231 -0.9320061
000070 ef 9a 3d 3e e5 ca 88 3f 85 3c a7 3f 6e 6f eb 3e
       0.18516134 1.0686918 1.3065344 0.45983452
000080 c3 07 86 3e 17 8b 42 bf ef f3 02 c0
       0.26177797 -0.75993484 -2.0461385

input_embeddings.embeddings.week.weight f4 [52, 8]
000000 ce 9d 17 bf 00 05 1e 3e 39 ac e1 3e f0 d9 17 be
       -0.59225166 0.15431595 0.44076708 -0.1482923
000010 60 61 14 c0 7c cf a6 3f d6 c9 f9 3e aa 26 91 3f
       -2.3184433 1.3032069 0.487868 1.1339924
000020 a2 07 c1 3f 6b 6d 9e 3e 41 14 00 bf fc 7a 84 3f
       1.5080454 0.30942854 -0.50030905 1.0350032
000030 5b 46 d8 3f cb 46 ae 3c 18 4b 54 bf 91 59 8a bf
       1.6896471 0.021273991 -0.82927084 -1.0808583
000040 5f b6 87 bf b0 99 12 bf b8 25 ab 3d 65 c0 cc 3e
       -1.060253 -0.5726576 0.08356804 0.39990535
000050 57 9e fe 3f 96 18 ec be e9 d5 82 bd 1e f1 ae bf
       1.9892071 -0.46112508 -0.063884564 -1.3667333
000060 07 60 8a bf 47 5e 90 3c f2 34 a0 3d 4a cb 45 3e
       -1.0810555 0.01762308 0.078225985 0.1931583
000070 b7 c0 d1 3e 0c a7 c9 bf ba 0d 10 40 52 28 80 3f
       0.40967342 -1.5754104 2.2508378 1.0012305
000080 97 d7 ec 3e 20 34 5f bf 53 27 de bc a1 dc b4 be
       0.46258232 -0.8718891 -0.02711836 -0.35324576
000090 aa 5f bb 3f 25 0d 31 3e 0d 93 86 3f 16 7b f5 3b
       1.4638569 0.1729017 1.0513626 0.0074914796
0000a0 64 53 03 3f d0 2b 0a 3f f0 c4 10 3f 91 7b 01 3f
       0.5129912 0.539731 0.565505 0.5057917
0000b0 e4 ca 63 3e 26 11 6a bf b3 f2 bd 3f 22 31 69 bf
       0.22245365 -0.91432416 1.4839691 -0.91090596
0000c0 4e 2a ce bf 66 51 bd bf 0e 53 dd 3e a9 06 00 be
       -1.610666 -1.4790466 0.43227428 -0.1250254
0000d0 e9 38 48 3f 1d 42 10 3f 10 da ed 3f 2f a4 85 3f
       0.7821184 0.5635088 1.8582172 1.044073
0000e0 73 50 20 3d 6d 26 a7 3f cf 82 7c 3e b3 21 fd bf
       0.039139222 1.3058602 0.24659275 -1.9775909
0000f0 b9 9a 92 3c 24 d9 b4 bf e6 84 f0 bf 2d 26 38 be
       0.017896043 -1.4128766 -1.8790557 -0.17983313
000100 b7 9a c4 bc 42 40 fa bd 18 3b 3f bf a1 ca da 3f
       -0.023999555 -0.122192875 -0.74699545 1.7093087
000110 59 40 6d 3d 17 1e 5d 3f b9 c8 16 bf 2d 5a 84 bf
       0.057922695 0.8637404 -0.5890003 -1.034002
000120 db 1b 7b 3f 70 45 d4 3e 43 0a 94 3f 85 c1 89 3e
       0.9808938 0.41459227 1.1565632 0.26905456
000130 c0 08 16 bd 0a 26 f6 be 42 f2 a1 3e cb ec c5 3e
       -0.03662944 -0.48075897 0.3163014 0.3865722
000140 03 ce e1 be 83 92 a0 be 38 5b 04 be c7 07 37 bf
       -0.44102487 -0.3136178 -0.12925422 -0.7149624
000150 8b d0 42 bd 88 e0 05 3f 53 c3 78 3f e7 42 8e be
       -0.047562163 0.5229573 0.9717304 -0.27785417
000160 1f 55 36 3f 96 1c 02 bd 16 29 d0 3d 63 f1 ab 3f
       0.71223634 -0.031765543 0.101640865 1.343304
000170 d6 98 36 3f 09 4c b1 3e 22 48 0a bf 3d 5b 5b 3f
       0.7132696 0.34628323 -0.54016316 0.85686094
000180 38 63 75 bf c0 42 e8 3e f1 7f 9f 3f d6 9d 13 c0
       -0.9585452 0.45363426 1.246092 -2.3065085
000190 df b8 a4 bf b7 cf 5a 3e f4 17 9e bf 37 fa ed 3f
       -1.2868918 0.213683 -1.235106 1.8591985
0001a0 e7 37 85 bf e1 c4 43 bf f3 6f 62 bd 8c 38 9a 3f
       -1.0407685 -0.7647229 -0.055282544 1.2048507
0001b0 64 83 7b bf d0 a1 9b 3e cd 13 6f 3f 93 7d fc bf
       -0.9824736 0.3039689 0.9338959 -1.9725822
0001c0 e9 08 ba bf 3c 28 ee 3e 07 27 be 3e f3 97 98 bb
       -1.4533969 0.4651507 0.3713915 -0.0046567856
0001d0 d1 ea a2 3d 91 7e e9 be b9 98 7d bd 3a 85 63 be
       0.07954944 -0.45604375 -0.061913226 -0.2221879
0001e0 60 ee 57 bf 23 cb de 3e 5e 22 88 3e 17 4c 16 bf
       -0.84348106 0.43514356 0.2658872 -0.58709854
0001f0 c5 58 a9 3d e7 38 3e 3e 80 44 78 bf dd 52 f2 3f
       0.082688846 0.18576394 -0.9697952 1.8931538
000200 d5 3d 6d bd fa 10 11 3f fc b2 35 bf 50 9a f9 be
       -0.057920296 0.5666653 -0.70976233 -0.48750544
000210 76 31 4d 3d af 94 a7 3e 2f 52 04 3e c1 86 36 40
       0.050095998 0.32730624 0.12921976 2.8519747
000220 07 ce 8a 3f c5 a0 72 3f 95 37 2d bf 3b b1 12 bf
       1.0844125 0.94776565 -0.67662936 -0.5730168
000230 5e 1f a9 be e1 3f 9d be bd 2a 37 bf 8c fd 9b 3d
       -0.33031744 -0.30712798 -0.7154959 0.076167196
000240 ee e8 9e bf 43 f8 a3 be 26 29 58 bf 0c 25 0d bf
       -1.2414834 -0.32025346 -0.8443779 -0.55134654
000250 48 96 fe 3f b4 0d 59 3f b3 01 32 bf ce 79 9c 3e
       1.9889612 0.84786534 -0.6953384 0.3056168
000260 1a 94 33 be ea 01 e3 bf 61 63 34 bf d4 0f ca be
       -0.17536965 -1.7734959 -0.7046414 -0.394652
000270 07 83 f1 3f 53 f7 36 3e fa b8 1d bd ed ef b1 bd
       1.8868111 0.17867784 -0.038506486 -0.0868834
000280 42 2f da 3f f8 19 b1 3e 40 79 24 3f 62 d9 50 be
       1.7045672 0.34590125 0.6424751 -0.20395425
000290 3c 74 2f 3f 79 e3 aa bf ca 68 d3 3f 98 91 fd 3f
       0.68536735 -1.3350669 1.6516354 1.9810057
0002a0 ee 9f e5 3e 93 3a 17 bf e2 a3 5a 3f 32 ea fa be
       0.4484858 -0.5907375 0.85406315 -0.49006802
0002b0 c8 0a b8 be 69 66 71 bd 00 3b f6 be bb 4b 7e 3f
       -0.35945725 -0.058935557 -0.48091888 0.99334306
0002c0 23 50 2a 3e ea 32 bc 3f fc 67 70 bf 0a f0 19 bf
       0.16632132 1.4703038 -0.9390867 -0.60131896
0002d0 2d 10 cc bd 3c 93 9d bf e5 9f 5d 3f 4a 37 b6 bf
       -0.09964023 -1.2310557 0.86572105 -1.4235623
0002e0 db f4 57 3f 5a c9 7c 3f 97 f8 a9 be 1e c0 4e bf
       0.84357995 0.9874474 -0.33197471 -0.807619
0002f0 88 09 53 3f b3 3a be 3f 7c 5c b4 bf 6c 4f ba be
       0.8243642 1.4861664 -1.4090724 -0.3638872
000300 a4 a4 d0 be 87 5d 76 3f bb 10 12 be 01 61 1c 3e
       -0.4075061 0.9623646 -0.14264195 0.15271379
000310 3e ef 1e bd c3 29 5a be 92 21 17 bf bf fe ee 3e
       -0.038802378 -0.21304993 -0.590356 0.4667873
000320 72 a5 92 3f 07 37 11 be a1 7c 8d be d2 d9 45 be
       1.145674 -0.14181148 -0.27634147 -0.19321373
000330 1e db 46 3f 18 69 38 3f 16 fc aa bf a7 90 4f 3f
       0.77678096 0.7203536 -1.335818 0.81080097
000340 ad a5 19 3f c9 c0 f0 be 10 d0 1b bf d9 33 3d bd
       0.60018426 -0.47022083 -0.60864353 -0.046192024
000350 9a a7 d2 bf 85 2e 32 bf ca 8d 71 3e 74 fd 53 3f
       -1.6457398 -0.69602233 0.23589244 0.82808614
000360 e0 f3 10 3e e8 74 84 3f 3a 5e 20 bf 16 dd 03 bf
       0.14155531 1.0348177 -0.6264378 -0.51509225
000370 d8 b6 30 3f 25 94 02 40 01 23 a6 bf b7 b6 1d 3f
       0.69029 2.040292 -1.2979432 0.61606926
000380 e3 c1 b5 3f 8a 38 59 3f 9d 29 44 bd c3 26 2b 3f
       1.4199795 0.84851897 -0.047891248 0.6685602
000390 60 80 85 3f 56 6f 38 3f c4 2c bc 3f 5c 8d 8f bf
       1.0429802 0.72044885 1.4701161 -1.1215014
0003a0 7d c9 95 bf f8 52 d3 bd af 40 98 3f df bc 42 3f
       -1.1702114 -0.103185594 1.189474 0.76069444
0003b0 d7 0d 3f bf 5e 15 15 bf 68 cd ac 3f ed 41 8e 3e
       -0.7463049 -0.5823573 1.3500185 0.27784672
0003c0 57 f5 06 3d 91 bf db be 1b 57 7b bf f4 5d 24 bf
       0.032948818 -0.4291959 -0.9817979 -0.6420586
0003d0 52 9b 53 3f 61 ad ba be d3 81 b2 3d 1a af 8f 3f
       0.82658875 -0.36460403 0.08716168 1.1225312
0003e0 bb 08 e8 3d 46 01 9e 3d 77 3d 6c bf 30 89 a1 bf
       0.1132979 0.07715087 -0.9228129 -1.2619991
0003f0 cb 03 8b 3f 33 eb 60 bf 37 1d 23 40 19 ce 28 3f
       1.0860533 -0.87858886 2.5486581 0.6593948

input_embeddings.embeddings.month.weight f4 [12, 6]
000000 c9 5b dd be 5c df 10 3e c7 9e 91 3d e8 37 10 3f
       -0.4323409 0.14147705 0.071103625 0.56335306
000010 79 21 14 bf 5b 6e 9d bf 7f f1 05 40 7d 33 60 3f
       -0.57863575 -1.2299303 2.0928648 0.87578565
000020 5b c2 bf 3f 62 cc 33 3d 96 df b8 3f fd 98 6d 3e
       1.4981188 0.043896087 1.4443233 0.23202892
000030 e0 a9 01 3f 8c f2 6a bf 5d 54 d7 3e fe da bc be
       0.50649834 -0.9177635 0.42056552 -0.36885828
000040 f8 f9 ac 3e b6 0e 00 3e 5c 1c 43 bf 45 64 98 bf
       0.3378446 0.12505612 -0.7621515 -1.19056
000050 34 8e 46 3f e6 98 71 bf c8 33 31 3e a9 d3 f0 bf
       0.77560735 -0.9437393 0.17304909 -1.8814594
000060 80 a2 e6 3f 97 40 98 bd a5 66 20 be bb ef 5e bf
       1.8018341 -0.074341945 -0.15664156 -0.8708455
000070 f3 1e 24 bf a3 91 09 3f b7 20 48 3f 04 1c 86 3f
       -0.64109725 0.5373785 0.7817492 1.04773
000080 b3 06 0b c0 45 93 b3 3d 22 01 8c 3f 7d 17 f1 bd
       -2.172284 0.08768324 1.0937846 -0.11772058
000090 c4 e7 98 be 7a 78 c2 3f a3 a5 12 3d f1 b0 84 3f
       -0.29864323 1.5193017 0.035802495 1.0366498
0000a0 5a 84 fb bb 1f aa 04 bf 43 ec 56 3f 77 b5 6f 3d
       -0.0076756896 -0.51822084 0.83954257 0.058522668
0000b0 27 89 d5 bf cf 91 a3 bc 55 47 9b bf bb 3a 99 3f
       -1.668248 -0.019966988 -1.2131144 1.1971048
0000c0 46 02 97 bf 1e 9d 07 bf 6f 67 76 3f 89 12 8f 3e
       -1.1797569 -0.52974117 0.9625158 0.2794383
0000d0 bd 62 12 bf 64 7b f9 3f 36 b2 d9 be d6 24 c0 be
       -0.5718191 1.9490781 -0.42518777 -0.37528104
0000e0 85 6a b1 bf cb 5c d3 3f 17 03 04 bf 9b d0 40 bf
       -1.3860632 1.6512693 -0.51567215 -0.75318307
0000f0 c3 24 63 bd 0a e1 a4 3e 89 61 e4 3e 54 f0 c2 3f
       -0.05545498 0.3220294 0.44605663 1.5229592
000100 12 c9 07 c0 35 d2 38 3f 9d 21 18 bf 43 77 49 3e
       -2.1216474 0.7219575 -0.5942629 0.19674401
000110 f7 01 d0 be 7e 9d ae bf 00 71 06 3c e8 cc cf be
       -0.406265 -1.3641813 0.008205652 -0.4058602

input_embeddings.embeddings.quarter.weight f4 [4, 3]
000000 d3 9f 24 3f 37 9d 0f bf bc 2f 3a 3f b5 6d d4 3e
       0.6430637 -0.56099266 0.72729087 0.4148995
000010 4f 9a 25 bf b8 b4 e6 3e 57 e0 4d 3f d5 bb 8c bf
       -0.6468858 0.45059752 0.8042044 -1.0994822
000020 f5 9d fe bf 24 08 97 3d b9 15 3d 3f 62 63 c3 bd
       -1.9891955 0.073745996 0.7386127 -0.0954044

input_embeddings.embeddings.is_weekend.weight f4 [2, 1]
000000 13 66 c0 3e d4 08 b2 bf
       0.37577876 -1.3908944

input_embeddings.embeddings.is_holiday.weight f4 [2, 1]
000000 40 64 41 3e fe 16 3c 3e
       0.18885899 0.18368146

prescalers.encoder_length.weight f4 [8, 1]
000000 54 2a 2f bf 60 29 0d bf b2 e0 3a 3f 1c 8c a1 3e
       -0.6842396 -0.5514126 0.7299911 0.31552207
000010 70 69 a5 3e 9c 01 d9 be 80 1b 62 bc b2 4c 6a 3f
       0.32307005 -0.4238404 -0.013800502 0.9152328

prescalers.encoder_length.bias f4 [8]
000000 06 a8 19 bf 80 d0 00 3c c8 81 f3 3e 30 bb 30 bf
       -0.6002201 0.00786221 0.47559953 -0.69035625
000010 0c 9f 78 3f f4 cc ff be 38 e6 75 be 30 88 8a be
       0.97117686 -0.49961054 -0.24013603 -0.27057028

prescalers.rev_per_vehicle_center.weight f4 [8, 1]
000000 1e d3 26 bf 28 34 7b bf 94 58 10 3f 70 06 88 3e
       -0.6516589 -0.9812646 0.5638516 0.2656741
000010 12 c5 6f bf ba c4 24 bf b0 05 7d 3f 50 b4 c3 3e
       -0.9366008 -0.6436268 0.98836803 0.38223505

prescalers.rev_per_vehicle_center.bias f4 [8]
000000 f0 6f cd 3e 10 2a 19 bf 74 75 e0 be b8 93 1a be
       0.40124464 -0.5982981 -0.4383961 -0.15095413
000010 e0 44 3b be 70 6c 2f bf 70 b9 a8 3d f0 8b cb 3d
       -0.18287992 -0.6852484 0.082384944 0.099388

prescalers.rev_per_vehicle_scale.weight f4 [8, 1]
000000 f0 a8 01 be 80 f5 0d 3e 78 ee ca be bc 3f 85 3e
       -0.12662101 0.13863182 -0.39635062 0.26025188
000010 8c 18 c1 3e 5e d8 06 bf 20 d8 7d bf cc ff 05 3f
       0.3771404 -0.526739 -0.99157906 0.5234344

prescalers.rev_per_vehicle_scale.bias f4 [8]
000000 f8 42 74 3e d2 32 02 bf 2c b5 76 3f 0c 8d e7 be
       0.23853672 -0.50858796 0.96370196 -0.45224798
000010 be fd 2c 3f 48 e0 01 3f ea a1 56 bf e0 1a 25 3f
       0.6757468 0.5073285 -0.8384081 0.64494133

prescalers.offday_run.weight f4 [8, 1]
000000 94 62 6b bf e8 d3 0d bf 50 b7 2a be 50 8e 2c bf
       -0.91947293 -0.5540147 -0.1667149 -0.6740465
000010 c4 16 7a 3f c0 64 4d be 74 5c cb 3e e0 95 64 bf
       0.9769099 -0.20057964 0.39718974 -0.8929119

prescalers.offday_run.bias f4 [8]
000000 e0 5e 13 3f 0c 1f 9f be 5a bb 42 bf 78 bb 15 3e
       0.5756664 -0.31078374 -0.76067126 0.14622295
000010 60 0b f8 3e aa 8a 5d 3f e8 5c 1c bf 18 f5 fb be
       0.48446178 0.8653971 -0.61079264 -0.4921043

prescalers.rain_mm_lag1.weight f4 [8, 1]
000000 90 e0 44 3e c0 e2 8a 3e 8c d9 c4 3e 16 83 0c 3f
       0.19226289 0.27126122 0.38447225 0.5488752
000010 20 32 68 be d0 39 0e 3f 24 bf 3c 3f d4 be 85 be
       -0.22675371 0.55556965 0.7372916 -0.26122153

prescalers.rain_mm_lag1.bias f4 [8]
000000 10 22 36 3f 18 27 fa 3e 36 ce 61 3f 66 7a 11 bf
       0.71145725 0.4885795 0.8820528 -0.5682739
000010 88 d4 fc be 04 0a 94 be 60 c6 4f 3d a4 a6 19 3f
       -0.49380898 -0.2891389 0.050726295 0.600199

prescalers.RH.weight f4 [8, 1]
000000 0e 24 12 bf dc 2a 00 3f c4 7d b7 be e8 a6 1a 3f
       -0.57086265 0.500654 -0.3583814 0.6041093
000010 80 77 42 bd 3c 47 60 bf ea dc 0c bf d0 47 39 bf
       -0.047477245 -0.87608695 -0.5502459 -0.723752

prescalers.RH.bias f4 [8]
000000 cc ee fd 3e 0c a9 2b bf c0 a2 aa bd 18 ef 5c 3e
       0.4959625 -0.6705482 -0.08331823 0.21575582
000010 98 63 0c bf 58 b2 93 3e e2 f6 79 bf 90 2b 37 bf
       -0.5483947 0.28847003 -0.9764234 -0.71550846

prescalers.W.weight f4 [8, 1]
000000 b4 f7 67 bf 50 de 9a be 30 85 ba be 48 a1 12 3e
       -0.9061234 -0.30247736 -0.3642974 0.14319336
000010 38 5a 3d be 98 ae f0 3e 1a b3 6a 3f 78 b3 b7 3e
       -0.18491447 0.47008204 0.9167954 0.3587911

prescalers.W.bias f4 [8]
000000 1c b6 c9 be f8 b6 6f bf 88 72 b9 3e a8 ac fd be
       -0.3939675 -0.93638563 0.36220193 -0.4954579
000010 b8 45 02 3f d4 21 2b 3f 28 7d c5 3e 22 35 70 3f
       0.5088763 0.6684849 0.3857205 0.93831074

prescalers.inventory_est.weight f4 [8, 1]
000000 dc 25 73 3f 58 d2 58 3e f0 87 3a bf 92 b8 64 3f
       0.94979644 0.2117399 -0.72863674 0.8934413
000010 1c f1 f2 be 54 d8 f1 be 20 37 56 3f f8 59 46 3f
       -0.47449577 -0.47235358 0.83677864 0.7748103

prescalers.inventory_est.bias f4 [8]
000000 94 b3 9a 3e 60 60 80 3d a6 56 57 bf 40 97 d4 bd
       0.30215132 0.06268382 -0.8411659 -0.10380411
000010 4e 89 75 3f a4 62 82 3e 80 58 af 3d 78 a2 54 be
       0.95912635 0.25465882 0.08561802 -0.20765102

prescalers.has_inventory.weight f4 [8, 1]
000000 98 93 b2 be f2 94 18 3f 20 98 7c 3d 08 8c 26 3f
       -0.3487823 0.5960227 0.061668515 0.6505742
000010 20 3f 35 be 90 b2 df 3e 94 56 d3 3e 90 4a 23 3e
       -0.17699862 0.4369092 0.4127699 0.15946412

prescalers.has_inventory.bias f4 [8]
000000 0e dd 20 3f de 6b 20 3f d8 4a 6d 3f 80 ce 44 3f
       0.628373 0.6266459 0.9269233 0.76877594
000010 ac ea 82 be 1a bc 58 bf 80 34 3b 3e 00 01 0f bc
       -0.25569665 -0.8466202 0.18281746 -0.008728266

prescalers.avg_vehicle_age_inv.weight f4 [8, 1]
000000 e8 8a 85 be 40 79 2b be 80 a5 40 3d 06 c9 3a 3f
       -0.2608254 -0.16745472 0.047032833 0.7296299
000010 8c 9c 9f 3e ec ce b5 be 14 8c d2 be 10 93 7d be
       0.31174123 -0.3550943 -0.41122496 -0.24763131

prescalers.avg_vehicle_age_inv.bias f4 [8]
000000 b8 e3 c5 be 78 33 66 3f d6 96 07 3f 6a 29 67 3f
       -0.38650298 0.89922285 0.5296453 0.9029757
000010 00 4c 51 3b d0 82 4e 3e 24 8b b1 3e 4e 51 72 bf
       0.0031936169 0.20167089 0.34676468 -0.9465531

prescalers.avg_standard_rate_inv.weight f4 [8, 1]
000000 20 e1 b6 3d a0 fd 88 bd 06 87 0f bf 7c a4 46 bf
       0.08929658 -0.06689 -0.56065404 -0.77594733
000010 58 a1 62 3f 18 25 50 3f c4 4b ed 3e b6 49 74 3f
       0.8852744 0.813066 0.46346867 0.95424974

prescalers.avg_standard_rate_inv.bias f4 [8]
000000 0c c6 cf be 38 de 30 be 4c da c1 3e 28 31 29 be
       -0.40580785 -0.1727227 0.3786186 -0.16522658
000010 c8 f1 48 be 88 99 53 bf f8 8d 89 3e 30 b5 1a bf
       -0.19623482 -0.82656145 0.26866126 -0.6043272

prescalers.relative_time_idx.weight f4 [8, 1]
000000 c0 f4 14 3d 00 98 79 3f f8 99 9d be d0 60 a1 be
       0.036366224 0.9749756 -0.3078153 -0.31519175
000010 b6 72 1a 3f 0c 3d bc be 80 e0 af bd 7c 09 6f 3f
       0.60331285 -0.36765325 -0.08587742 0.93373847

prescalers.relative_time_idx.bias f4 [8]
000000 14 e8 d1 be 20 25 37 bf d0 44 0f bf 24 f3 8d be
       -0.40997374 -0.71541023 -0.55964375 -0.27724564
000010 80 f1 f2 be b6 d8 04 bf d0 d1 ce 3e 28 04 2e 3e
       -0.47449875 -0.51893175 0.4039445 0.16993773

prescalers.lag_1.weight f4 [8, 1]
000000 1c df a3 be aa e3 46 bf 50 35 a1 be 84 15 d8 be
       -0.32006156 -0.7769114 -0.31485987 -0.42203915
000010 50 9d a6 be 88 f1 66 bf 70 99 5c 3e d8 16 3c bf
       -0.32541895 -0.902123 0.21542907 -0.73472357

prescalers.lag_1.bias f4 [8]
000000 62 5f 47 bf 16 29 51 bf 50 b3 d5 3e 6c 1e 1a bf
       -0.7787992 -0.8170332 0.41738367 -0.6020267
000010 14 54 d3 be c8 a9 48 3f 46 ed 07 3f c4 c9 12 3f
       -0.41275084 0.78384066 0.53096426 0.5733912

prescalers.lag_7.weight f4 [8, 1]
000000 dc 12 73 bf da 93 37 bf 20 49 c1 be 22 7b 53 3f
       -0.9495065 -0.7170998 -0.37751102 0.8260976
000010 e0 82 d1 3d 30 76 3f bf 00 30 cd 3b e6 d3 46 bf
       0.102300406 -0.74789715 0.0062618256 -0.7766708

prescalers.lag_7.bias f4 [8]
000000 90 5b 60 be 88 c9 8c be 00 9c 5d 3f d0 95 9e 3e
       -0.21909928 -0.27497506 0.8656616 0.30973673
000010 58 8e 32 be a8 fb 2c 3e f8 cb 93 be 3c 2a c9 3e
       -0.17437112 0.16892874 -0.28866553 0.39290035

prescalers.lag_28.weight f4 [8, 1]
000000 58 87 ca 3e e0 7e 89 3e d8 90 c7 be 16 68 5a 3f
       0.39556384 0.2685461 -0.38977695 0.8531507
000010 b8 d5 13 be 84 54 c7 be 1e 56 20 3f 8e a7 50 3f
       -0.14436996 -0.38931668 0.62631404 0.8150567

prescalers.lag_28.bias f4 [8]
000000 ca c2 7e 3f 2c af 97 3e a4 89 ae be 36 05 02 3f
       0.99515975 0.29625833 -0.34089386 0.507892
000010 e8 a2 5b 3f f2 17 7b bf 70 b8 fd bd 4a 95 2e bf
       0.8579545 -0.9808341 -0.12388694 -0.6819655

prescalers.roll_mean_7.weight f4 [8, 1]
000000 18 d5 3e 3e 64 c1 d3 3e c8 8b 53 be 70 54 ab bd
       0.18635976 0.41358483 -0.20658791 -0.083657146
000010 ec 74 e6 3e 78 1a 2c be ca fb 56 bf b6 d5 4c 3f
       0.4501108 -0.16806972 -0.8397795 0.80013597

prescalers.roll_mean_7.bias f4 [8]
000000 38 d9 00 bf 80 fd e0 bd 30 2e c1 3d 20 28 76 bd
       -0.5033145 -0.10985851 0.09432638 -0.06009686
000010 cc d0 70 bf d4 e7 ea 3e 08 91 e8 be e0 c6 04 bf
       -0.940686 0.45879996 -0.4542315 -0.5186596

prescalers.roll_std_7.weight f4 [8, 1]
000000 40 a6 74 3e c0 98 05 bf 30 a0 ec be b4 84 ac be
       0.23891544 -0.52186203 -0.46215963 -0.33694994
000010 d0 58 c0 be 94 d4 d5 be 44 14 8a be 70 0e 85 3e
       -0.3756776 -0.41763747 -0.26968586 0.25987577

prescalers.roll_std_7.bias f4 [8]
000000 e8 28 4f bf a6 f3 1a bf 00 11 6f 3c e0 67 0e 3e
       -0.80921793 -0.6052803 0.014591455 0.13906813
000010 0a 63 0d 3f 5e d3 33 bf c8 6d a3 3e fe 81 11 3f
       0.55229247 -0.70244396 0.31919694 0.5683898

prescalers.utilization_7.weight f4 [8, 1]
000000 88 25 0e 3f a4 71 6e bf a0 61 c3 be 7e 0c 5c bf
       0.5552602 -0.9314215 -0.3816042 -0.8595656
000010 ee ff 21 bf 6e 96 0e 3f 18 e7 18 be c4 73 d9 3e
       -0.6328114 0.5569829 -0.14931905 0.42471135

prescalers.utilization_7.bias f4 [8]
000000 0c 46 16 bf 60 9b 1b 3e f8 d7 1a bf d8 f1 ff 3e
       -0.58700633 0.1519599 -0.6048579 0.499892
000010 24 f0 df be 80 63 80 be 16 1d 5e bf 00 80 58 3b
       -0.437379 -0.25075912 -0.8676313 0.0033035278

prescalers.vehicle_count.weight f4 [8, 1]
000000 22 11 73 3f 7c 83 f8 3e 24 96 08 bf 00 58 5c 3c
       0.9494802 0.48537815 -0.53354096 0.013448715
000010 60 8f e0 bd 58 19 4e bf 32 ba 48 3f 80 0f 84 3c
       -0.109648466 -0.8050742 0.7840911 0.016120672

prescalers.vehicle_count.bias f4 [8]
000000 c0 a6 57 3e ac c2 ce be 18 93 ef be d0 d8 28 3e
       0.21059704 -0.40382898 -0.4679191 0.16488957
000010 c0 4a bd 3e 60 ae 65 3e 80 c1 f6 be c2 8c 78 3f
       0.36971092 0.224298 -0.48194504 0.9708978

prescalers.coupon_count.weight f4 [8, 1]
000000 c0 bc 16 be 3c c7 1c bf 08 78 ef be 00 03 7c 3f
       -0.1472044 -0.6124151 -0.46771264 0.9844208
000010 00 00 4a 38 88 00 0b be 28 13 d5 be ec 37 86 be
       4.8160553e-05 -0.13574421 -0.41616178 -0.2621454

prescalers.coupon_count.bias f4 [8]
000000 4a 9c 57 bf 60 70 4b bf 88 d5 15 3f bc fe 5a 3f
       -0.84222853 -0.79468346 0.5852895 0.85544944
000010 08 4d 74 3f 36 d1 38 bf 04 76 0a 3f 98 74 1e bf
       0.9543004 -0.7219423 0.5408633 -0.6189666

prescalers.coupon_flag_prev1.weight f4 [8, 1]
000000 2c b8 18 3f c8 b7 38 3f 68 1c 46 3f 48 55 38 3f
       0.59656024 0.7215543 0.77387094 0.7200513
000010 92 25 20 3f 40 72 9f 3c 48 41 eb 3e c0 2d b7 be
       0.6255733 0.019463658 0.45948243 -0.35777092

prescalers.coupon_flag_prev1.bias f4 [8]
000000 50 f1 de 3e cc 8e a4 be 00 8e 89 bc 26 d1 5e bf
       0.43543482 -0.32140195 -0.016791344 -0.87037885
000010 00 e0 85 be 9c 9f 06 bf 50 b5 ac be 68 7a 23 bf
       -0.2614746 -0.52587295 -0.3373208 -0.6385865

prescalers.coupon_count_lag7.weight f4 [8, 1]
000000 fa 41 66 bf d0 5b 85 3d 80 23 26 3f e0 26 69 3f
       -0.8994442 0.065116525 0.6489792 0.91074944
000010 ce 63 15 3f c2 b1 04 bf be 2f 7d bf 6c 35 c2 3e
       0.58355415 -0.51833737 -0.98900974 0.37931383

prescalers.coupon_count_lag7.bias f4 [8]
000000 bc 70 0f 3f 72 c7 5b bf 98 98 b7 3e 32 71 58 3f
       0.56031394 -0.85851204 0.35858607 0.8454772
000010 20 1f 78 3d be 3a 1a bf 6a e3 51 3f d4 a1 da 3e
       0.060576558 -0.60245883 0.8198763 0.4270159

prescalers.coupon_per_vehicle.weight f4 [8, 1]
000000 04 86 29 3f 0c 21 2d bf 62 fa 14 3f ea dd 2e bf
       0.66220117 -0.6762855 0.58194554 -0.68307364
000010 80 4f 7d 3f 2c ef d8 be d6 41 1a 3f 20 0c 4d 3e
       0.9894943 -0.42369974 0.6025671 0.20024157

prescalers.coupon_per_vehicle.bias f4 [8]
000000 74 af 87 3e 18 09 1d be e8 4b d2 3e 20 63 d5 be
       0.26501048 -0.153355 0.41073537 -0.4167719
000010 e0 4c 71 bf 44 b6 c4 be fc 95 48 3f 48 cb 86 be
       -0.94257927 -0.38420308 0.7835386 -0.26326966

prescalers.region_total_rev.weight f4 [8, 1]
000000 58 ee a0 3e c8 4c bd be c8 09 40 3f a8 36 19 3f
       0.31431842 -0.36972642 0.75014925 0.59849024
000010 34 be b4 3e 7e db 02 bf 6c 2f 51 bf 40 36 1a 3d
       0.35301363 -0.5111617 -0.81712985 0.037649393

prescalers.region_total_rev.bias f4 [8]
000000 34 2f 16 bf 4a 7b 52 3f 82 02 76 bf ec cb e4 3e
       -0.58665776 0.82219374 -0.96097577 0.4468683
000010 c2 35 7f 3f 4a 36 00 3f c4 94 ae 3e 3e 4f 76 bf
       0.996914 0.5008284 0.34097874 -0.96214664

prescalers.region_vehicle_count.weight f4 [8, 1]
000000 a2 3e 76 3f 18 27 2f be 64 35 6f bf b4 b6 7c 3f
       0.9618932 -0.17104757 -0.9344084 0.9871628
000010 38 59 d0 be 20 e4 90 bd c2 4f 6a 3f 9a 75 31 bf
       -0.40693069 -0.070747614 0.9152795 -0.6932007

prescalers.region_vehicle_count.bias f4 [8]
000000 10 1e 35 bf 28 85 26 3e 00 11 09 be b8 de 6b 3e
       -0.70748997 0.16261733 -0.13385391 0.23034179
000010 64 b5 56 bf c0 fe f4 3c 8c b7 e3 be 28 b4 fb be
       -0.8387053 0.02990663 -0.44475973 -0.49160886

prescalers.region_rev_per_vehicle.weight f4 [8, 1]
000000 2e 67 6a bf 64 bc 07 3f 80 42 45 3e f8 6e 58 bf
       -0.9156369 0.53021836 0.19263649 -0.84544325
000010 38 26 4b 3f 0c 6e 9a 3e 48 04 3e 3e 92 4e 16 bf
       0.7935519 0.30162084 0.1855632 -0.5871364

prescalers.region_rev_per_vehicle.bias f4 [8]
000000 80 6c 1a 3e 92 aa 76 3f 20 96 2f 3f 0a 64 47 bf
       0.15080452 0.9635402 0.6858845 -0.7788702
000010 a6 ae 69 3f 70 bd 9e 3d 10 41 f6 3e 42 d4 46 3f
       0.9128212 0.07750976 0.48096514 0.7766763

prescalers.region_vehicle_mean_rev.weight f4 [8, 1]
000000 0a 3e 5a 3f 98 8f 47 bf 82 2b 60 3f 68 de 2d bf
       0.85250914 -0.7795348 0.8756639 -0.6791749
000010 d0 87 99 3d 2c e2 32 bf b0 7e 60 be 20 22 3a bd
       0.07496607 -0.6987636 -0.21923327 -0.0454427

prescalers.region_vehicle_mean_rev.bias f4 [8]
000000 60 03 f5 bd 70 c4 21 be e0 86 a1 3d f0 85 7c 3f
       -0.11963534 -0.15797591 0.078870535 0.9864187
000010 2c bd 14 3f 6c 39 0f 3f 3c ed cc 3e bc 30 46 3f
       0.58101153 0.55946994 0.40024745 0.7741811

static_variable_selection.flattened_grn.resample_norm.mask f4 [6]
000000 00 00 00 00 00 00 00 00 00 00 00 00 00 00 00 00
       0.0 0.0 0.0 0.0
000010 00 00 00 00 00 00 00 00
       0.0 0.0

static_variable_selection.flattened_grn.resample_norm.norm.weight f4 [6]
000000 00 00 80 3f 00 00 80 3f 00 00 80 3f 00 00 80 3f
       1.0 1.0 1.0 1.0
000010 00 00 80 3f 00 00 80 3f
       1.0 1.0

static_variable_selection.flattened_grn.resample_norm.norm.bias f4 [6]
000000 00 00 00 00 00 00 00 00 00 00 00 00 00 00 00 00
       0.0 0.0 0.0 0.0
000010 00 00 00 00 00 00 00 00
       0.0 0.0

static_variable_selection.flattened_grn.fc1.weight f4 [6, 34]
000000 cd d5 3e be 2c e7 99 3d 8a c9 22 bf d0 0e 74 bd
       -0.18636246 0.07514796 -0.63588774 -0.05958444
000010 23 34 8e 3e 22 98 e3 3e d7 52 5f 3e bc 6e 85 bc
       0.27774152 0.44452006 0.21808945 -0.016288154
000020 39 28 c4 be 92 ee ac 3e 8f ab a0 3d d4 ae 3b 3d
       -0.38311937 0.33775765 0.07845222 0.045821026
000030 de 43 22 3e 31 bc 84 3d f5 53 ce 3e 72 11 e4 bd
       0.15846202 0.06481207 0.4029843 -0.1113614
000040 47 b0 8a 3e 76 84 87 bd 71 4b b3 bd 7a d4 6a 3e
       0.27087614 -0.06617062 -0.08754624 0.22932616
000050 9f a9 15 3c 92 2c cd 3e 4f 84 e8 bd 11 50 a2 be
       0.009134679 0.40073067 -0.11353361 -0.3170171
000060 c2 e9 90 3e 7e d0 73 bd da 49 43 be 16 fc 33 be
       0.28303343 -0.059525006 -0.19071141 -0.17576632
000070 43 0e b9 3d 3e 2f 0b 3e f3 b0 16 bf a7 a0 80 bd
       0.09035923 0.1359224 -0.58863753 -0.06280642
000080 8b a0 30 be 4c 10 49 be aa db cc 3d 67 31 00 3f
       -0.17248742 -0.19635123 0.10002835 0.5007538
000090 de 2b a2 bd 7c eb d6 be de 3a a3 bd 69 d7 9f be
       -0.07918523 -0.41976535 -0.079702124 -0.31219032
0000a0 3a b5 0b be 36 c0 2e 3d 0d 03 1a be a1 ac 24 3e
       -0.13643351 0.042663775 -0.15040226 0.16081478
0000b0 ad 82 73 be ac 7b 71 3e a2 c6 14 bf 0f 27 8f 3b
       -0.23780318 0.23582333 -0.5811559 0.00436867
0000c0 e2 58 df 3d 5b cb 7e be ce ca d1 3e 23 08 12 bd
       0.10905625 -0.24882261 0.4097504 -0.03565229
0000d0 9b ea f1 3c 87 0b 21 bd 01 67 f3 3d e7 50 62 3e
       0.029530814 -0.039317634 0.11884881 0.22101174
0000e0 04 df 38 be b3 3b b2 3d 55 e6 90 bd 4e 40 0a 3e
       -0.18053824 0.08702793 -0.07075182 0.13501093
0000f0 77 71 1b 3e 5d cd 72 3e d2 53 34 3e aa ca 9a 3e
       0.15180002 0.23711152 0.176101 0.30232745
000100 62 31 ca 3c 3f 44 ed bc e2 c3 ad 3e 6a a0 1f bd
       0.02468175 -0.028963206 0.3393851 -0.038971342
000110 6c 80 09 bf fc 36 a1 be 9b e5 e4 bd e8 9a 2b bd
       -0.5371158 -0.31487262 -0.11176606 -0.041895777
000120 6e 69 9e 3d 53 46 9f bd ed c1 34 3d 52 9f df be
       0.07734953 -0.07777085 0.044130255 -0.4367624
000130 b4 b0 b2 be b4 f3 e8 be d8 ee 7f be d5 0a a6 3e
       -0.3490044 -0.4549843 -0.24993455 0.3243014
000140 6f 85 f0 be 81 3c 41 3e 77 b5 ae be 14 95 c9 3d
       -0.46976802 0.18870737 -0.34122822 0.098428875
000150 22 ff e2 3e 76 02 b3 be 61 81 1d be 71 bf f3 be
       0.44335276 -0.34962815 -0.15381385 -0.47606996
000160 99 1a 9a 3e 25 04 b3 be 96 6a 9a be c1 55 98 be
       0.30098417 -0.349641 -0.30159444 -0.29752925
000170 8c ab 14 bd b4 4a 9a be 34 d5 b7 3e 4e 8b 1d 3e
       -0.036296412 -0.3013512 0.3590485 0.15385172
000180 05 c8 09 3e ed 8f 93 be 31 83 06 be d1 f2 d5 3c
       0.13455208 -0.28820744 -0.13135983 0.02611676
000190 7b 12 6d be e7 36 8c bd 91 6c 88 3e 0d db c2 bd
       -0.23151581 -0.06846409 0.2664533 -0.09514437
0001a0 c1 ca a3 3e 72 90 11 be 3e f6 41 3e 57 c2 02 3f
       0.31990626 -0.14215258 0.1894159 0.5107779
0001b0 13 ce bc 3e f1 e2 10 3e 5e 98 15 bd cb 60 7e be
       0.36875972 0.14149071 -0.03652226 -0.24841611
0001c0 82 de 40 bf 71 8f 05 be 0f e7 f1 bd 16 aa 9a 3e
       -0.7533952 -0.13043 -0.11811649 0.3020789
0001d0 a7 4a 84 be 53 b0 62 bd f0 f9 ee 3d 20 a8 21 3e
       -0.25838205 -0.055343937 0.116687655 0.15786791
0001e0 da d9 11 bd c7 b5 a3 be 23 1e a0 be ec d2 6a be
       -0.03560815 -0.31974623 -0.31272992 -0.22932023
0001f0 46 ce 44 be ed 2b d0 3d f4 f3 eb 3d 86 96 34 3e
       -0.19219312 0.10164628 0.1152114 0.17635545
000200 34 94 b1 bd 20 b4 b3 be 4b b1 d2 be 86 c3 06 bf
       -0.08670846 -0.35098362 -0.4115089 -0.52642095
000210 63 43 b1 bd 22 cc 1f be 47 bc 89 3d e1 23 57 be
       -0.08655431 -0.15605214 0.06725364 -0.2100978
000220 35 e3 0c be f0 c7 c6 3c 28 e3 76 bd 8b a3 62 be
       -0.13758548 0.02426526 -0.060275227 -0.22132699
000230 40 29 51 be 60 f5 60 3e 43 a7 5c 3e 6b e8 44 be
       -0.20425892 0.21968603 0.2154818 -0.19229285
000240 29 40 4a be fe 4e 46 be fc b4 00 3e 1c 26 90 be
       -0.19751038 -0.1936607 0.1256904 -0.28154075
000250 65 fb 7d be 20 8d fb bd 36 c2 41 3e dc f4 06 bc
       -0.2480293 -0.12282777 0.18921742 -0.00823709
000260 4d 7e 2f be ef b2 15 bc 2c 7b b8 be 1b 31 6d bd
       -0.17138024 -0.009136899 -0.36031473 -0.05790816
000270 7e 57 82 bd 14 dd 10 be 5e e1 34 be 50 30 c3 3d
       -0.06364344 -0.14146835 -0.17664096 0.09530699
000280 24 96 ae 3e d8 ba a3 3e d1 df e7 36 5f d9 b0 3e
       0.34098923 0.31978488 6.910392e-06 0.3454084
000290 9e fd 19 be cc 7f 5f be da 01 ee 3d 42 7b 76 bd
       -0.15038154 -0.21826094 0.11621447 -0.06017614
0002a0 c2 91 89 be 61 f1 e2 3d 54 dc 15 be 5c d1 e5 3d
       -0.26869017 0.110811956 -0.1463483 0.11221573
0002b0 2e b4 77 3d 72 7f 29 bd fe 83 18 be 72 ff 04 3e
       0.060474567 -0.041381307 -0.14894101 0.1298807
0002c0 05 e7 6a 3e 23 3c 8c be e8 11 cd be ff 2a 98 3e
       0.2293969 -0.2738963 -0.40052724 0.29720303
0002d0 70 57 93 be 6e 6d f1 3d 20 d9 c7 bd 29 27 ee 3c
       -0.28777647 0.1178845 -0.0975821 0.029071407
0002e0 2f 5a 86 3e 8e 27 26 3e fa b2 23 3e a1 76 a9 bc
       0.2624068 0.16226026 0.15986243 -0.02068645
0002f0 7c 2d da bd 4e 31 0a bd df 8d 94 bb eb a5 cd 3e
       -0.10653207 -0.033738427 -0.004533514 0.40165648
000300 7e 63 84 3e a3 cc 88 be d3 a3 ac 3e 82 55 1e be
       0.25857157 -0.26718625 0.33718738 -0.15462306
000310 ef 0c 16 bd 9f d4 08 3d ee 20 98 3e 1a cf 3d be
       -0.03663343 0.033405896 0.29712623 -0.18536034
000320 24 16 64 3e 57 b0 07 be f4 52 0a 3e 42 85 87 3c
       0.22274071 -0.13250862 0.13508207 0.016543034

static_variable_selection.flattened_grn.fc1.bias f4 [6]
000000 00 00 00 00 00 00 00 00 00 00 00 00 00 00 00 00
       0.0 0.0 0.0 0.0
000010 00 00 00 00 00 00 00 00
       0.0 0.0

static_variable_selection.flattened_grn.fc2.weight f4 [6, 6]
000000 ea 26 ea bd c4 74 5a bf 85 b5 ae be ca 0c f7 3e
       -0.114332035 -0.8533442 -0.34122863 0.48251945
000010 a6 88 07 be d9 0a 77 3f 6e 10 92 be a5 e0 0d 3f
       -0.13235721 0.9650093 -0.2852816 0.55420905
000020 09 34 e7 3e 87 a6 cc 3b 2e 9f 61 3e b7 44 74 bf
       0.45156887 0.0062454375 0.22033378 -0.9541735
000030 4e 7c 61 be 76 76 c1 3e 95 9c ad bd f3 f5 50 3f
       -0.22020075 0.3778569 -0.08477131 0.8162529
000040 e6 78 d2 3e ee 1b 05 bf 38 a5 03 3f cb de 8c 3e
       0.41107863 -0.5199574 0.5142398 0.27513728
000050 ed cf ef 3d f4 85 3c be 44 17 91 be c6 9b 8f be
       0.117095806 -0.18410474 -0.28338063 -0.28048533
000060 e2 de 90 be 9b 12 08 3f 8f ce b9 be 15 f9 c4 3e
       -0.28295046 0.5315339 -0.36290404 0.38471285
000070 18 b9 2b 3f 2d 94 9a bd af d7 4f bf 73 4a 21 3e
       0.67079306 -0.075477935 -0.8118848 0.15751056
000080 57 81 d8 3e 9d 6f 7d 3f 72 a2 c6 bf 8e a5 c8 bc
       0.42286178 0.98998433 -1.5518324 -0.024493005

static_variable_selection.flattened_grn.fc2.bias f4 [6]
000000 00 00 00 00 00 00 00 00 00 00 00 00 00 00 00 00
       0.0 0.0 0.0 0.0
000010 00 00 00 00 00 00 00 00
       0.0 0.0

static_variable_selection.flattened_grn.gate_norm.glu.fc.weight f4 [12, 6]
000000 26 f8 9e 3e 83 fe 0a bf 92 75 e2 be 4e 36 e3 bc
       0.31048697 -0.54294604 -0.44230324 -0.027735855
000010 52 08 09 bf d0 41 06 bf e2 7e 02 3f 11 de 33 bd
       -0.5352832 -0.5244417 0.5097486 -0.04391295
000020 b9 24 92 be 3a cb 4a be c0 c8 e6 be bf ad e6 3e
       -0.28543642 -0.19804087 -0.45075035 0.45054433
000030 52 32 00 be 0d 33 a6 be 7a 30 e0 be f7 c6 ac 3e
       -0.12519196 -0.32460824 -0.43786985 0.33745548
000040 57 72 a3 bd 31 71 78 bd 8e 16 1a be ca b1 8e be
       -0.07980793 -0.060654823 -0.15047666 -0.27870017
000050 01 57 d2 3d b0 6d e3 3e 6a 53 ab be 4c 9c e2 3c
       0.10270501 0.44419622 -0.33462077 0.027662419
000060 6e cf e0 be 88 9b 8a be 61 bc 01 3f d8 5c c6 3b
       -0.43908256 -0.27071786 0.5067807 0.0060535483
000070 52 61 0e 3f ea 29 cf bd ec 1d a1 be 99 9e b0 be
       0.5561725 -0.10115416 -0.3146814 -0.34496
000080 b0 ff 02 3f ab 50 e3 be 86 21 9b 3e a7 f6 12 3e
       0.511714 -0.44397482 0.30299014 0.14351903
000090 29 78 2e 3e 8d ca a6 3e 57 ac 1a be 98 e8 b6 3e
       0.17038025 0.3257641 -0.15104805 0.3572433
0000a0 8b 83 eb be cd 02 50 be d4 64 d8 3e 4a 75 2f 3e
       -0.45998797 -0.20313568 0.42264426 0.17134586
0000b0 07 77 9d bd 9b 10 0a be ec 7f b4 be 02 c1 b3 3e
       -0.07688718 -0.13482897 -0.35253847 0.3510819
0000c0 58 67 96 bc be 05 a0 bc 07 d1 0b 3e d5 23 da 3e
       -0.018359825 -0.019533988 0.13653956 0.42605463
0000d0 d8 cf 96 be 2c 9c 4b be 5b 4f c8 3e d9 f2 a6 3e
       -0.29455447 -0.19883794 0.39123043 0.32607153
0000e0 05 6b 91 be dc 36 12 bf e1 59 db 3d bf 74 9b 3e
       -0.28401962 -0.5711496 0.107105024 0.30362508
0000f0 c5 36 0d 3e fa ac d1 3e b8 8d ea be 92 11 95 3e
       0.13790424 0.40952283 -0.45811248 0.29114968
000100 3e c5 b7 be 17 5e a6 3e 2d d8 db 3e a2 3e 3b 3e
       -0.3589267 0.3249366 0.42938367 0.18285611
000110 46 2a ef 3e ef d8 c2 be b3 30 04 bf b0 1c 0e bf
       0.4671194 -0.38056132 -0.5163681 -0.55512524

static_variable_selection.flattened_grn.gate_norm.glu.fc.bias f4 [12]
000000 00 00 00 00 00 00 00 00 00 00 00 00 00 00 00 00
       0.0 0.0 0.0 0.0
000010 00 00 00 00 00 00 00 00 00 00 00 00 00 00 00 00
       0.0 0.0 0.0 0.0
000020 00 00 00 00 00 00 00 00 00 00 00 00 00 00 00 00
       0.0 0.0 0.0 0.0

static_variable_selection.flattened_grn.gate_norm.add_norm.norm.weight f4 [6]
000000 00 00 80 3f 00 00 80 3f 00 00 80 3f 00 00 80 3f
       1.0 1.0 1.0 1.0
000010 00 00 80 3f 00 00 80 3f
       1.0 1.0

static_variable_selection.flattened_grn.gate_norm.add_norm.norm.bias f4 [6]
000000 00 00 00 00 00 00 00 00 00 00 00 00 00 00 00 00
       0.0 0.0 0.0 0.0
000010 00 00 00 00 00 00 00 00
       0.0 0.0

static_variable_selection.single_variable_grns.spot_id.mask f4 [8]
000000 00 00 00 00 00 00 00 00 00 00 00 00 00 00 00 00
       0.0 0.0 0.0 0.0
000010 00 00 00 00 00 00 00 00 00 00 00 00 00 00 00 00
       0.0 0.0 0.0 0.0

static_variable_selection.single_variable_grns.spot_id.norm.weight f4 [8]
000000 00 00 80 3f 00 00 80 3f 00 00 80 3f 00 00 80 3f
       1.0 1.0 1.0 1.0
000010 00 00 80 3f 00 00 80 3f 00 00 80 3f 00 00 80 3f
       1.0 1.0 1.0 1.0

static_variable_selection.single_variable_grns.spot_id.norm.bias f4 [8]
000000 00 00 00 00 00 00 00 00 00 00 00 00 00 00 00 00
       0.0 0.0 0.0 0.0
000010 00 00 00 00 00 00 00 00 00 00 00 00 00 00 00 00
       0.0 0.0 0.0 0.0

static_variable_selection.single_variable_grns.vehicle_type.mask f4 [8]
000000 00 00 00 00 00 00 00 00 00 00 00 00 00 00 00 00
       0.0 0.0 0.0 0.0
000010 00 00 00 00 00 00 00 00 00 00 00 00 00 00 00 00
       0.0 0.0 0.0 0.0

static_variable_selection.single_variable_grns.vehicle_type.norm.weight f4 [8]
000000 00 00 80 3f 00 00 80 3f 00 00 80 3f 00 00 80 3f
       1.0 1.0 1.0 1.0
000010 00 00 80 3f 00 00 80 3f 00 00 80 3f 00 00 80 3f
       1.0 1.0 1.0 1.0

static_variable_selection.single_variable_grns.vehicle_type.norm.bias f4 [8]
000000 00 00 00 00 00 00 00 00 00 00 00 00 00 00 00 00
       0.0 0.0 0.0 0.0
000010 00 00 00 00 00 00 00 00 00 00 00 00 00 00 00 00
       0.0 0.0 0.0 0.0

static_variable_selection.single_variable_grns.region_code.mask f4 [8]
000000 00 00 00 00 00 00 00 00 00 00 00 00 00 00 00 00
       0.0 0.0 0.0 0.0
000010 00 00 00 00 00 00 00 00 00 00 00 00 00 00 00 00
       0.0 0.0 0.0 0.0

static_variable_selection.single_variable_grns.region_code.norm.weight f4 [8]
000000 00 00 80 3f 00 00 80 3f 00 00 80 3f 00 00 80 3f
       1.0 1.0 1.0 1.0
000010 00 00 80 3f 00 00 80 3f 00 00 80 3f 00 00 80 3f
       1.0 1.0 1.0 1.0

static_variable_selection.single_variable_grns.region_code.norm.bias f4 [8]
000000 00 00 00 00 00 00 00 00 00 00 00 00 00 00 00 00
       0.0 0.0 0.0 0.0
000010 00 00 00 00 00 00 00 00 00 00 00 00 00 00 00 00
       0.0 0.0 0.0 0.0

static_variable_selection.single_variable_grns.encoder_length.fc1.weight f4 [8, 8]
000000 8a fd 91 be df 71 c5 3d 66 fd 44 3e 87 0d dc be
       -0.28513747 0.0964086 0.19237289 -0.4297907
000010 5d 07 24 3f 56 e0 fb 3e 0d 39 f8 bc ea ae 44 be
       0.64073735 0.49194592 -0.030300641 -0.1920735
000020 59 95 9a 3e ec 01 0f 3f 66 31 55 3e ad b9 ac 3e
       0.30192068 0.5586231 0.20819625 0.3373541
000030 1b 63 e6 3d 16 f0 94 be 14 5c dd 3e c1 74 32 3f
       0.112493716 -0.2908942 0.43234313 0.697094
000040 37 29 5f be 2a 82 fb be 7c 02 e8 be 4e 39 21 3f
       -0.21793066 -0.49122745 -0.45314395 0.62978065
000050 fd 49 31 3e d1 98 db 3d 0d c4 08 be e0 1f 32 be
       0.1731338 0.10722507 -0.13356037 -0.17394972
000060 31 ed 16 3f c5 59 01 bf 45 c9 9e be 72 39 3a bf
       0.58955675 -0.505276 -0.3101293 -0.72743905
000070 4e fa 96 be 33 0d 3f 3f ec 86 12 3f a2 01 0c 3e
       -0.29487842 0.74629515 0.57237124 0.13672498
000080 d3 fd c0 bd 95 04 95 be a3 cc 5e be 1b d7 24 bf
       -0.09423413 -0.29105058 -0.2175775 -0.64390725
000090 d6 e9 76 3f 12 2d 8e bd 0c 2f 5d be 0c 92 51 be
       0.96450555 -0.0694219 -0.21599978 -0.20465869
0000a0 e9 17 85 3e 10 2e c1 be 38 da 88 bc d7 e0 d3 be
       0.25994805 -0.37730455 -0.016705617 -0.41382477
0000b0 f6 6f 34 be 22 6e 1e bf 34 3a 31 be 28 9c 1a 3e
       -0.17620835 -0.618868 -0.17307359 0.15098631
0000c0 c1 fe 50 3f 5a 69 3f bf 36 72 19 be be 33 54 be
       0.81638724 -0.7477013 -0.14984974 -0.20722863
0000d0 5b 83 c8 be 32 a4 10 3f bd 74 4e bf 6d e3 63 3e
       -0.39162716 0.5650054 -0.8064688 0.22254725
0000e0 56 b7 a5 3c a4 db fc 3d 3b 6d 66 3d c6 f1 88 be
       0.020229023 0.123465806 0.056256514 -0.26746958
0000f0 ba c7 ea 3e a7 02 04 bf bd b0 2f be db 0a 81 be
       0.45855504 -0.5156655 -0.17157264 -0.25203595

static_variable_selection.single_variable_grns.encoder_length.fc1.bias f4 [8]
000000 00 00 00 00 00 00 00 00 00 00 00 00 00 00 00 00
       0.0 0.0 0.0 0.0
000010 00 00 00 00 00 00 00 00 00 00 00 00 00 00 00 00
       0.0 0.0 0.0 0.0

static_variable_selection.single_variable_grns.encoder_length.fc2.weight f4 [8, 8]
000000 04 37 8c be 6e 0a bb bd 1e 61 1e bf 72 9e ac bd
       -0.27385724 -0.09132849 -0.6186694 -0.084286585
000010 da 5a b0 3e 1a 1f 48 3d a9 c1 06 3f 60 3f 0e bf
       0.34444314 0.048857786 0.5263925 -0.5556545
000020 ca 8a af bd b6 3f 45 bf eb 10 29 be f7 4a bd be
       -0.08571394 -0.7705034 -0.1651036 -0.36971256
000030 66 52 41 bf ec 11 25 3d ca 4c 72 bf db a9 90 3e
       -0.75516355 0.040300295 -0.9464842 0.2825459
000040 bb 62 e1 be 6d 0e e1 be b3 47 46 3f a5 dc fb 3b
       -0.44020638 -0.43956318 0.77453154 0.007686215
000050 e2 2f 62 bc 58 08 dc bc 6a fe c5 be 15 20 31 bf
       -0.013805361 -0.026859447 -0.38670665 -0.6918958
000060 13 ee 60 3e 3c f7 03 bf 32 94 36 bf c6 36 b8 3e
       0.21965818 -0.51549125 -0.7131988 0.3597929
000070 9b 91 98 3e 19 4a 69 bf 5a 96 89 bd ef 38 7f 3e
       0.29798588 -0.9112869 -0.067181304 0.24924062
000080 60 ea 22 3e 13 c7 8e bf ef f8 03 bf 37 d4 d2 3d
       0.1590972 -1.1154503 -0.5155172 0.10294383
000090 95 3c d5 be da fc d1 be ad fa d1 be 3b 72 e9 3e
       -0.41647783 -0.41013223 -0.41011563 0.45594963
0000a0 b1 5b 9f bd 24 7a 51 3e 49 72 7f 3e be 5e 00 bf
       -0.077811606 0.20456749 0.2494594 -0.50144565
0000b0 9f fa 0a 3d b2 27 98 3e 18 08 37 bf 60 b1 b6 be
       0.033930417 0.29717785 -0.71496725 -0.356822
0000c0 8b 05 2e 3f fd 48 d9 be b2 ab 6b bf 80 ba 2d 3f
       0.6797721 -0.42438498 -0.9205886 0.678627
0000d0 f0 fc 12 3f 9c 59 fd 3e ca c7 72 3d de dc fb 3e
       0.574172 0.4948243 0.059272565 0.49191946
0000e0 20 6c 2b be 89 85 5f bf a1 1e 15 3e 7c 0a 6a be
       -0.16740465 -0.87313133 0.14562465 -0.22855562
0000f0 7d d2 f5 3e 6c 67 0b bf 43 77 21 bf c7 82 83 bf
       0.48012152 -0.54454684 -0.63072604 -1.0274285

static_variable_selection.single_variable_grns.encoder_length.fc2.bias f4 [8]
000000 00 00 00 00 00 00 00 00 00 00 00 00 00 00 00 00
       0.0 0.0 0.0 0.0
000010 00 00 00 00 00 00 00 00 00 00 00 00 00 00 00 00
       0.0 0.0 0.0 0.0

static_variable_selection.single_variable_grns.encoder_length.gate_norm.glu.fc.weight f4 [16, 8]
000000 a8 b5 f3 be 42 8e f0 be 86 7d c4 be 70 25 20 3e
       -0.4759953 -0.46983534 -0.38377017 0.15639281
000010 1c 6f dd be 8e 6a c3 be f8 2a 78 be 92 f3 eb be
       -0.43248832 -0.38167232 -0.24235141 -0.46084267
000020 00 9c 30 3a 08 bb 93 3d b2 cf 95 be b4 9e a7 3e
       0.0006737113 0.07213408 -0.2926002 0.32738268
000030 d0 60 42 be 50 24 10 be 40 0a c3 3e 0a ca db 3e
       -0.18982244 -0.14076352 0.38093758 0.4292758
000040 90 f2 6a bd dc c6 b7 be 62 6d 80 be 38 65 82 3d
       -0.057360232 -0.35893905 -0.25083452 0.06366962
000050 b6 10 96 3e 80 e5 7e 3e 18 17 62 be 8c 03 f2 be
       0.29309624 0.24892235 -0.22079122 -0.4726833
000060 a2 09 e0 be 60 e5 22 be 00 86 cd 3b 58 fa 65 be
       -0.4375735 -0.15907812 0.0062720776 -0.2245878
000070 a8 6b ca be 80 d5 57 3d 98 32 cb be ae 96 c4 be
       -0.3953526 0.052693844 -0.39687037 -0.3839621
000080 3a 1d d0 be 08 bd 0a be 34 1d e2 3e 94 26 48 3e
       -0.40647298 -0.13548672 0.44162905 0.19545966
000090 50 d4 72 bd 30 c0 d2 3d 10 e2 4b 3e 00 ea 3e 3b
       -0.05928451 0.10290563 0.19910455 0.0029131174
0000a0 a8 7b ce be 8e b9 9d be 10 ea ad be 80 03 50 bc
       -0.40328717 -0.3080563 -0.33967638 -0.012696147
0000b0 c4 57 ea be 50 2f ba bd 5c 39 3b be 12 3b fb 3e
       -0.45770085 -0.090910554 -0.182836 0.49068505
0000c0 3e 15 d0 3e d4 b2 94 3e 80 b6 e5 3c 8c c5 25 be
       0.40641207 0.29042685 0.028041124 -0.1618864
0000d0 98 98 02 3e c4 e0 b0 be bc 5e 5a be e8 b4 cd bd
       0.12753522 -0.34546483 -0.21325201 -0.10044271
0000e0 f8 97 f0 bd 66 82 f2 be 30 89 4b 3e b8 cf d2 3e
       -0.11747736 -0.4736511 0.19876552 0.41174102
0000f0 ea 33 8d be 98 04 0a 3e f0 83 6d bd 20 64 95 bc
       -0.2757867 0.13478315 -0.057987154 -0.01823622
000100 80 c1 ee 3c 5a d8 dd 3e d0 34 89 3d 20 f7 a1 be
       0.029145002 0.43329126 0.06699526 -0.31633854
000110 60 2c 38 be 40 20 7a 3e 9c c5 1f 3e 80 37 1f 3c
       -0.17985678 0.24426365 0.15602726 0.009717822
000120 f8 24 87 bd 14 35 47 be 04 b9 35 be 52 09 87 be
       -0.06598848 -0.19453841 -0.17746359 -0.26374298
000130 60 cb a7 3d 88 ca 0f 3e de 07 c4 3e d8 55 e7 bd
       0.081930876 0.14042103 0.38287252 -0.1129567
000140 20 9d 12 3d 3a 73 a5 3e 18 b7 5e 3e 48 92 83 3d
       0.035794377 0.32314473 0.21749532 0.06424385
000150 a0 53 1d 3e e0 9b d4 3c 3e 98 db be c0 e7 9d 3c
       0.15363932 0.025953233 -0.4288959 0.019275546
000160 28 d3 df bd 76 04 e7 3e 9c 12 e7 3e e8 26 cb 3d
       -0.10928947 0.4512059 0.45131385 0.0991953
000170 48 d0 e4 3e 48 d8 83 be 2a 82 de 3e 86 69 dc 3e
       0.44690156 -0.25750947 0.43458682 0.43049258
000180 a0 8d 9c bc 42 71 cd be 74 38 25 be 3c ec 08 be
       -0.0191105 -0.4012547 -0.16134816 -0.13371366
000190 c0 50 07 3c 4c 1a e8 be f8 c5 bd 3d c0 ef 54 be
       0.008258998 -0.45332563 0.09266275 -0.20794582
0001a0 d4 17 03 be d6 38 84 be 80 33 d8 bd ee c0 ed be
       -0.12802058 -0.25824612 -0.10556698 -0.46436256
0001b0 16 b9 87 be 00 ac 3c 3d 2a c0 a7 3e b2 a3 e8 3e
       -0.26508397 0.04606247 0.32763797 0.4543739
0001c0 12 a7 c1 be e8 ff 56 3e 5e 4e 90 be 9e ed c5 be
       -0.37822777 0.20996058 -0.2818479 -0.3865785
0001d0 60 5e b4 bc 82 da 92 be a4 7a dc be c8 3d ef be
       -0.022017658 -0.28682333 -0.43062317 -0.46726823
0001e0 6a 5a ab be 46 5d d2 3e f4 c5 8e 3e 78 ac 4a be
       -0.33467418 0.41086787 0.278854 -0.19792354
0001f0 9a 58 ab be 08 ed c4 be 6a 2c 97 be e8 af 52 be
       -0.33466035 -0.3846209 -0.29526073 -0.20574915

static_variable_selection.single_variable_grns.encoder_length.gate_norm.glu.fc.bias f4 [16]
000000 00 00 00 00 00 00 00 00 00 00 00 00 00 00 00 00
       0.0 0.0 0.0 0.0
000010 00 00 00 00 00 00 00 00 00 00 00 00 00 00 00 00
       0.0 0.0 0.0 0.0
000020 00 00 00 00 00 00 00 00 00 00 00 00 00 00 00 00
       0.0 0.0 0.0 0.0
000030 00 00 00 00 00 00 00 00 00 00 00 00 00 00 00 00
       0.0 0.0 0.0 0.0

static_variable_selection.single_variable_grns.encoder_length.gate_norm.add_norm.norm.weight f4 [8]
000000 00 00 80 3f 00 00 80 3f 00 00 80 3f 00 00 80 3f
       1.0 1.0 1.0 1.0
000010 00 00 80 3f 00 00 80 3f 00 00 80 3f 00 00 80 3f
       1.0 1.0 1.0 1.0

static_variable_selection.single_variable_grns.encoder_length.gate_norm.add_norm.norm.bias f4 [8]
000000 00 00 00 00 00 00 00 00 00 00 00 00 00 00 00 00
       0.0 0.0 0.0 0.0
000010 00 00 00 00 00 00 00 00 00 00 00 00 00 00 00 00
       0.0 0.0 0.0 0.0

static_variable_selection.single_variable_grns.rev_per_vehicle_center.fc1.weight f4 [8, 8]
000000 60 37 9a 3e f4 49 8e bd a5 18 85 be e5 0a 5c be
       0.30120373 -0.06947699 -0.25995365 -0.21488531
000010 d3 da ee be 87 23 8d 3c cc 47 82 3e 86 a2 a5 3e
       -0.46651325 0.017228855 0.25445402 0.32350558
000020 ed ac d8 3e 6a 16 18 3c 7a 78 56 bf 96 cc 78 bf
       0.42319432 0.009282688 -0.8377758 -0.97187173
000030 c5 0b 4a 3d 5b ae a4 3f d0 85 b4 be f4 5a 14 bf
       0.04932763 1.2865709 -0.3525834 -0.57951283
000040 ac 73 87 3d 8c f9 ca be 1e 67 1d 3f 02 33 1f 3d
       0.066138595 -0.39643514 0.6148547 0.038867004
000050 b7 dc 66 3f 2d 3d 27 bf 85 92 0d 3f e3 ea eb 3e
       0.90180534 -0.6532772 0.55301696 0.46077642
000060 f1 cd 27 bf e7 3f 7c 3c bc 99 97 be ce ab 16 bf
       -0.65548617 0.015396095 -0.29609478 -0.58855903
000070 41 d7 5e 3f 85 cf c4 37 de 9b 91 3e c1 e4 d2 3e
       0.870472 2.3461655e-05 0.2843923 0.4119015
000080 62 87 26 bf 5a a9 27 3f c8 83 08 be cb b4 c9 3d
       -0.6505033 0.65492785 -0.1333152 0.09848937
000090 b6 ff b2 be c1 77 96 3e 34 46 c4 be b6 fc 92 3d
       -0.34960717 0.2938824 -0.3833481 0.07177107
0000a0 2a 8f 35 3e 2b 00 59 be 48 1c 09 3f 42 99 ad 3f
       0.17730394 -0.2119147 0.5355878 1.3562396
0000b0 4e 2c c6 bd ba 72 95 be dc 44 b5 be bc 3f 16 bf
       -0.09676419 -0.29189092 -0.35404098 -0.58691
0000c0 fc 29 cc 3e fe bd c4 be f4 ce 44 3f 68 78 63 bf
       0.39875782 -0.38426203 0.76878285 -0.888556
0000d0 36 45 08 bf 09 93 57 be ca e7 a9 be 76 de 3a 3f
       -0.5323061 -0.21052183 -0.33184654 0.729957
0000e0 de 13 0b bf 90 92 89 3f ea 1c ed be c2 9e dc be
       -0.5432719 1.0747852 -0.46311122 -0.43089873
0000f0 04 ac d9 bb 81 47 d4 bc 49 b3 52 3e d9 e2 17 be
       -0.0066428203 -0.025913002 0.20576204 -0.1483263

static_variable_selection.single_variable_grns.rev_per_vehicle_center.fc1.bias f4 [8]
000000 00 00 00 00 00 00 00 00 00 00 00 00 00 00 00 00
       0.0 0.0 0.0 0.0
000010 00 00 00 00 00 00 00 00 00 00 00 00 00 00 00 00
       0.0 0.0 0.0 0.0

static_variable_selection.single_variable_grns.rev_per_vehicle_center.fc2.weight f4 [8, 8]
000000 bb 59 1b 3f be 7f 67 bf 59 eb c6 3d fa fe aa 3e
       0.6068379 -0.90429294 0.09712858 0.33397657
000010 d9 55 14 bf 8d 18 de 3e 06 c1 48 3f c5 cd bb 3d
       -0.57943493 0.43378106 0.7841953 0.09170107
000020 90 a1 bb 3c b3 03 5b bd 9b c7 34 3e ae 0b 29 3e
       0.022904187 -0.053470325 0.17654268 0.16508362
000030 bc e9 87 be 7e bf 7a 3f 2a c5 6f be 68 8b 2a 3f
       -0.26545513 0.97948444 -0.23415056 0.6661897
000040 04 23 1d be fc 9c 35 3f 7c ca 69 be 6a 7e 4c bf
       -0.15345389 0.70942664 -0.22831148 -0.7988039
000050 6b 07 c6 3e 31 e4 36 bd 2d a9 b5 bf e6 3d 69 3e
       0.38677534 -0.044651214 -1.4192253 0.22777519
000060 2f 2a 38 3f f6 c2 08 bf ab 55 aa bd 31 82 84 3e
       0.7193937 -0.53422487 -0.08317121 0.25880578
000070 d7 86 bb be 2a a8 57 3f 49 42 63 3e 53 47 af be
       -0.36626312 0.84240973 0.22193255 -0.34234104
000080 63 7e 40 bf 37 a5 65 be 58 96 86 3e ff 17 06 3e
       -0.7519285 -0.22426306 0.26286578 0.13095091
000090 19 7a b7 3e 15 8b 23 bf 50 a2 57 3e 21 98 ba be
       0.3583534 -0.638841 0.21058011 -0.3644419
0000a0 29 5a 2e be a7 a9 5d be 56 79 27 3f 83 ce 5b 3e
       -0.17026581 -0.21646748 0.6541952 0.21465497
0000b0 00 e0 11 3d a7 64 2c bf 51 ae db 3e 55 30 b6 bd
       0.035614014 -0.67341083 0.4290643 -0.08895937
0000c0 59 e8 b2 3e 45 fa 96 be 43 8f a8 bd 19 77 7c be
       0.34942892 -0.29487815 -0.0823045 -0.24654807
0000d0 bd 0b 81 3e b2 9e ff 3e 8c 82 96 3c 27 4a eb 3d
       0.25204268 0.49925762 0.018372796 0.11488753
0000e0 7e f7 b3 be 6b ea b7 bd 0d bb e5 3e f1 bc d3 3c
       -0.3514976 -0.089802586 0.4486927 0.02584693
0000f0 a7 12 88 be f1 95 92 3e a7 cf 45 3e 95 62 0b 3e
       -0.2657673 0.2863002 0.19317494 0.13611825

static_variable_selection.single_variable_grns.rev_per_vehicle_center.fc2.bias f4 [8]
000000 00 00 00 00 00 00 00 00 00 00 00 00 00 00 00 00
       0.0 0.0 0.0 0.0
000010 00 00 00 00 00 00 00 00 00 00 00 00 00 00 00 00
       0.0 0.0 0.0 0.0
